data/model_dataset_56000_p_conv2d_small_epoch_18.pth (torch, 648414 bytes, 25 tensors)

a1.weight f4 [16, 2, 3, 3]
000000 06 08 f0 be 89 e0 24 bd 4a 67 01 be 7d 54 9f 3e
       -0.4688112 -0.040253196 -0.12637058 0.31119147
000010 4d eb 33 be 57 4e c3 bd df f5 dc bd 5f db 88 be
       -0.17570229 -0.095364265 -0.10789084 -0.26729867
000020 d2 dd 3e bc 2d 6d 2e 3e e8 37 c3 bd 24 01 49 3d
       -0.011649566 0.17033835 -0.09532148 0.049073353
000030 11 ce d4 ba e7 88 4c ba 35 6b d8 3c 13 da 40 bd
       -0.0016235729 -0.00078023825 0.026418308 -0.04708297
000040 7c 4a 82 3b bd dd ed bc 86 53 bf 3d f2 3d a3 bf
       0.0039761644 -0.029036397 0.09342103 -1.2753279
000050 5c a2 f0 be b2 b5 b3 3d dd 81 e6 bf 6b 15 29 c0
       -0.4699887 0.0877489 -1.8008381 -2.6419322
000060 60 3c 72 3d 9a 8c 9c 3d 12 85 5f 3d 7f 11 3c 3d
       0.05913961 0.07644005 0.054570265 0.045915123
000070 69 98 87 bd ef 82 8a 38 5c d2 52 bd 0f 34 01 3d
       -0.06620867 6.604741e-05 -0.051470146 0.031543788
000080 ec 57 5a be 7d 72 1f 3d 5c 98 ab 3d d7 04 33 3e
       -0.21322602 0.038927544 0.083786696 0.17482315
000090 e6 a4 01 be 6b ae a4 bb 33 cf 1a ba 19 a5 2d 3a
       -0.1266056 -0.005025675 -0.0005905509 0.0006624028
0000a0 9f 37 96 3e 3e 34 be bc a8 d5 32 3b fe 7e 1c c0
       0.2933931 -0.02321827 0.0027287994 -2.445251
0000b0 a7 8e 8c 3e aa 39 40 bd 16 8c be 3c bd d6 49 bd
       0.27452585 -0.046929993 0.023260158 -0.049277056
0000c0 83 b7 58 bd 4a 5d 17 3d 0d 1e 80 bd 46 67 84 3d
       -0.052909385 0.0369542 -0.06255732 0.0646501
0000d0 cc bc e2 3c 72 4e c6 bc 3f 41 81 bf 53 42 00 3e
       0.027677916 -0.024207328 -1.0098037 0.125253
0000e0 e7 2d f6 3d 27 96 42 bd 1c 52 11 bd 66 82 aa bf
       0.12020474 -0.047506478 -0.035478696 -1.3321044
0000f0 40 8e 49 3e 67 a4 b1 bf 0b 36 c2 3c ca fe b4 3c
       0.1968317 -1.3878297 0.02370741 0.02209415
000100 93 03 0a be 61 2f c8 3d fa 31 37 3d b4 12 4f 3d
       -0.13477926 0.09774662 0.044725396 0.050554946
000110 2b 51 7b 3c 9f 83 dc bc 94 94 1d 3d 59 ae 3b bd
       0.015339176 -0.02691823 0.038471773 -0.045820568
000120 5e 63 a3 bf 98 80 5a bf 11 cb 11 bd aa ff ce bf
       -1.27647 -0.8535247 -0.03559405 -1.6171772
000130 1f cf 25 3e 01 1e 1f c0 91 c3 b5 bd bb e9 c2 3d
       0.16192292 -2.4862063 -0.08875192 0.09517237
000140 57 63 82 bc fc 90 46 3d 7f 71 8e bd b0 43 64 3c
       -0.01591651 0.04847811 -0.069552414 0.013932154
000150 f1 2c 80 3d d1 b3 ec 3d 2b 5d 88 3d 3e 46 70 be
       0.06258572 0.11557735 0.066583954 -0.23464295
000160 46 90 c1 3d cf c0 2b be 30 e2 0d 3d a4 58 4a bc
       0.09451346 -0.1677277 0.034639537 -0.012350235
000170 84 e6 fb 3d 69 ae 2f c0 ea 4d 1c 3c 1e 15 6a 3c
       0.12299827 -2.7450202 0.009540061 0.014287261
000180 c7 9a 22 3e 0d ad 1b 3e 90 85 cc 3c 36 90 a4 3d
       0.15879355 0.15202732 0.024966031 0.080353186
000190 b5 5d 12 be 8d 40 43 3c 66 c5 d9 bc 9f ac 28 be
       -0.14293559 0.011917246 -0.026583385 -0.164721
0001a0 1f d3 97 3d 73 ae 81 bd e1 2d 44 3d 76 a8 fa 3d
       0.07413315 -0.06332102 0.047895316 0.122391626
0001b0 39 8d 11 bf 87 10 15 bf a4 c9 d5 bd ee de 0f 3d
       -0.56856114 -0.58228344 -0.104388505 0.03512471
0001c0 59 95 8d bf 4b 32 23 3e 91 3a 8e 3d 84 fd 94 bf
       -1.1061202 0.15937154 0.069447644 -1.1639867
0001d0 ab ae 51 bd aa 9c bd bd 6a d1 99 3e 0c d4 23 be
       -0.051191967 -0.09258397 0.30042583 -0.15998858
0001e0 b9 bb bc 3d 75 f6 69 3d a1 9b c7 3c 0e 21 c6 bd
       0.09215493 0.057119805 0.024366202 -0.096742734
0001f0 43 26 37 be 1f 9b 27 bc 2b c1 39 be 84 f7 74 be
       -0.1788569 -0.010229855 -0.18140094 -0.23922545
000200 10 e9 e1 bc 68 46 78 38 30 92 c4 bc a2 f9 71 be
       -0.027576953 5.919338e-05 -0.023995489 -0.23630384
000210 49 fa 39 be 9b 7e 86 bf 75 b0 32 be ee 12 b3 3b
       -0.18161882 -1.0507387 -0.17450126 0.005464903
000220 a6 f5 04 bc 42 6b 38 bd 7f f1 aa bc 8a 7f ac 3d
       -0.008115208 -0.045024164 -0.020867107 0.08422764
000230 4b f5 a9 ba 95 27 c6 bd 08 f4 80 bd 35 e4 99 3c
       -0.001296678 -0.096755184 -0.06296545 0.018785575
000240 2d ba 27 3e 5d dd 06 3e bd a3 b1 3d d6 33 17 c0
       0.16379614 0.13170381 0.08673809 -2.3625388
000250 cb 8a 8e 3b b9 43 28 bf 28 a1 d9 bf a9 90 89 bf
       0.0043500415 -0.65728337 -1.7002306 -1.0747272
000260 3f 54 69 3d 3e 92 28 3e 6e 64 d1 bd c1 aa a4 3c
       0.05696511 0.16462037 -0.102242336 0.020100953
000270 1a fc 25 3e a6 0d a8 bc a7 74 93 bc 68 37 5d be
       0.1620945 -0.02051432 -0.01799996 -0.21603167
000280 1b 51 95 bc bf 8b 1f 3c 9f 36 69 bf d6 d5 06 3d
       -0.01822715 0.009737908 -0.9109897 0.032918774
000290 97 c8 55 bf b9 18 4a bf 19 e5 87 bc ea d8 9e bf
       -0.835092 -0.78943974 -0.016588734 -1.2409947
0002a0 97 e7 bd bf 01 11 9d be 05 8b b9 bf 59 dd 03 bd
       -1.4836301 -0.30677035 -1.449555 -0.032193515
0002b0 20 1d ca 3d ae 15 26 be 84 36 1c 3d 40 18 cc bd
       0.098688364 -0.16219208 0.038137928 -0.09965563
0002c0 a6 69 7f bc dd fc 57 bc d7 41 15 3e 29 c8 c5 3c
       -0.015589153 -0.013182846 0.14575897 0.024143295
0002d0 b7 89 03 3e 7e d2 19 3e ed 54 d2 bf 78 44 e6 3d
       0.12845503 0.15021703 -1.6432167 0.11243528
0002e0 e1 7a d0 bf aa 11 1b c0 03 8b e4 3d 90 4a f0 bd
       -1.62875 -2.4229531 0.11159327 -0.11732972
0002f0 b5 43 7b bf 55 51 20 3e 25 24 95 bb 45 52 29 3d
       -0.9815019 0.15656026 -0.004551428 0.041338224
000300 d4 3b f6 bd 69 b1 8e bd 40 86 44 3d 4f d8 d9 bc
       -0.1202313 -0.06967432 0.047979593 -0.026592402
000310 df 84 9c bd 9d 89 1f bd b0 f5 3e 3b e6 0c a1 3a
       -0.07642531 -0.038949598 0.002913814 0.0012287169
000320 a6 a7 38 3a 58 29 06 3c 0b e1 84 3e 2b 49 75 3e
       0.00070440245 0.008188568 0.25952944 0.23953693
000330 8b 14 71 3e 0a 56 6a bb a6 86 67 3b 94 b3 42 bd
       0.23542993 -0.003575685 0.003532806 -0.04753454
000340 ba 0c 79 3c 91 2c 48 bd be 6b 2b 3d ce eb 6a 3c
       0.015200788 -0.048870627 0.041850798 0.014338447
000350 33 63 e6 bc 68 47 47 bd 8f ab 8a bd b7 87 f3 3d
       -0.028123474 -0.048652083 -0.067710035 0.1189112
000360 94 cd 2e 3e e1 57 e6 bd 5e 91 c4 bc 6a 7e fb 3d
       0.1707061 -0.1124723 -0.023995098 0.12279971
000370 ae 1c 58 bd d4 ab e1 bc b1 e6 1e 3e c0 cb f1 bf
       -0.052761726 -0.027547754 0.1551769 -1.8890305
000380 f1 83 f1 bc 2b 39 f1 3c e8 03 1f be dc ba 5c 3c
       -0.02948186 0.029446205 -0.15528834 0.013472285
000390 1b 5e 6b be 3e 15 90 3d 0a ba f9 3d 94 c1 82 3e
       -0.22985117 0.070353016 0.12193687 0.25538313
0003a0 09 c2 9b bd 88 67 b6 bd 38 93 b4 3b c9 a8 22 3c
       -0.07605369 -0.08906466 0.005510714 0.009927937
0003b0 78 29 52 3c 05 f8 81 39 d4 0f a7 3e d9 94 6c 3e
       0.01282727 0.00024789586 0.32629263 0.23103656
0003c0 da 44 51 bd 42 0c 2d 3b 58 cd 0f 3e b6 38 2a be
       -0.051091053 0.0026405011 0.14043176 -0.16623196
0003d0 35 d6 e0 3d b3 9e b7 bd fb 80 1f 3e 45 a2 c4 bd
       0.10978357 -0.08965816 0.15576546 -0.09601263
0003e0 00 09 d7 3d 21 bf 2c bc 17 dc 8c 3d 7e ff d0 bd
       0.104997635 -0.010543616 0.06877916 -0.10204981
0003f0 55 c6 70 bf 18 cc 0b 3e 6f 2f fd 3d d3 0b 18 3e
       -0.9405263 0.13652074 0.12362563 0.1484826

a1.bias f4 [16]
000000 3a ea f1 be c4 6c a5 3e 13 91 bb bf bc ab 04 bf
       -0.47249013 0.32309544 -1.4653648 -0.51824546
000010 ec 6a 48 3e 49 1c 30 bf 51 16 7e 3e d6 29 6d 3f
       0.19572037 -0.6879316 0.248132 0.9264196
000020 dc 75 a2 bc c2 0e 26 3f 22 c3 08 bf 63 e8 9e bf
       -0.01983159 0.6486627 -0.5342275 -1.2414669
000030 b9 e3 2b be 69 79 b3 be ad 48 6f be 93 1d 15 c0
       -0.16786088 -0.35053566 -0.23367567 -2.32993

a2.weight f4 [16, 16, 3, 3]
000000 fb dd 32 3d 42 1b 3c 3d 98 c6 8e 3c e0 e2 a9 bc
       0.04366873 0.045924433 0.017428681 -0.020738065
000010 ef 34 e7 b9 c8 e9 07 be cc d7 fe 3d 39 a6 c7 bd
       -0.00044099192 -0.13272774 0.12443504 -0.09748501
000020 06 c3 76 3e 9d 88 ff 3b e1 82 08 3b 3c 5f 01 3e
       0.24097833 0.007798268 0.0020829963 0.12633985
000030 f6 d3 ee 3d 38 a2 74 3c 91 a2 37 be b0 ef 70 3c
       0.11661522 0.014931254 -0.17933108 0.014705583
000040 fe d0 e9 3c c7 7d af bc 87 26 ef 3b 5d 1d 01 3e
       0.028542038 -0.02142228 0.007298294 0.12608857
000050 e9 49 8f 3c 3a 64 58 3e 17 b5 02 bf a1 82 02 3e
       0.017491298 0.21131983 -0.5105757 0.12745143
000060 a4 e8 0c bf 4a 4e f1 bf 4c ee 21 bf 25 f4 0d 3d
       -0.5504248 -1.8852017 -0.6325424 0.034656662
000070 91 ba 3f bc 88 f9 d6 3b 52 74 b6 bd 17 83 3c bd
       -0.011702196 0.006560508 -0.08908905 -0.046023455
000080 2f 69 8f bd 56 37 e0 3e 3a 4d d6 bd f5 05 59 bc
       -0.07002484 0.43792218 -0.104639485 -0.013246049
000090 a2 b3 02 3c f6 ec 0a 3e 7d 86 c2 3d fe 14 6e 3c
       0.007977398 0.13566956 0.09498308 0.014531372
0000a0 84 7a 73 3d 9e 6f 4a bd 41 0b 0d 3c 48 7d 1a be
       0.059443012 -0.049422853 0.00860864 -0.15086854
0000b0 83 4f 5a 3e 2a ca 35 bd 3d e0 20 3b a7 22 11 3e
       0.21319394 -0.04438225 0.002454772 0.14173375
0000c0 12 98 a2 3d be c4 0c 3d 50 4e 07 3d 3e e7 8b 3c
       0.07939161 0.034367315 0.03303367 0.017078038
0000d0 fa f9 7f 3c 1c 76 a0 3e cd 43 d5 bd 2a 6d 68 3c
       0.015623564 0.3134011 -0.104133226 0.014186183
0000e0 d0 ea 51 bd 26 e1 5a 3d b2 09 3d bc 49 2c ad bd
       -0.051249325 0.053437375 -0.011537956 -0.08455712
0000f0 6d b5 6d 3d 51 f0 01 3c 2a fc 99 be 9b 34 af bd
       0.05803435 0.007930831 -0.30075198 -0.085549556
000100 c6 e6 2b 3d 34 0e a6 be f0 5e b4 3d 49 51 bb bd
       0.04196813 -0.3243271 0.088071704 -0.09146363
000110 d2 11 1c 3e e1 1a 99 3d 87 df 60 be 16 72 05 bf
       0.15241173 0.0747583 -0.21960269 -0.52127206
000120 33 4d a9 bc fa 6d 36 bc 06 44 2e be 64 fa c8 3d
       -0.020666694 -0.011134619 -0.17018136 0.09813383
000130 bf 27 be bd a1 02 22 be 3e c4 3b 3e 74 27 b1 be
       -0.09284925 -0.15821315 0.18336579 -0.34600413
000140 af 04 57 3e 25 6b 80 bd 79 13 91 3d b6 fe dd 3d
       0.2099788 -0.06270436 0.07083792 0.10839598
000150 08 e2 b5 3d 5d ca 01 bf 0b b2 db bd 31 40 a5 3b
       0.08881003 -0.50699407 -0.107273184 0.0050430526
000160 65 f4 ee be a1 02 82 bd 81 a0 12 bd 99 5d cd bd
       -0.46670833 -0.06348158 -0.0357976 -0.10027618
000170 5b e7 58 3e 8e cf ce 3c 7a 19 b2 bd e1 d2 17 3c
       0.21182005 0.025245454 -0.086962655 0.009266586
000180 27 dd bb bd 9d 94 cc be 47 0d 4a be 97 ef 31 bd
       -0.09173041 -0.39957133 -0.19731627 -0.04344138
000190 23 69 0f be b9 33 0d 3d 5f 6e 70 3e e7 59 b5 be
       -0.1400495 0.034473155 0.23479603 -0.35420153
0001a0 28 e0 0d bc 71 2c 1f c0 5a 45 10 3d c5 3e 61 be
       -0.0086594 -2.4870875 0.03522239 -0.21996601
0001b0 7d 2e 6b bd 97 b1 31 bc c4 94 06 3c 1f 70 4b be
       -0.05741738 -0.010845563 0.008214179 -0.1986699
0001c0 c5 fc 57 bc 54 a6 11 be 8a 8f e5 bb ad 34 2d bd
       -0.013182824 -0.14223605 -0.0070056366 -0.042286564
0001d0 32 56 4f 3d 4d 32 40 bd 10 84 09 3e d1 36 b7 3d
       0.05061931 -0.04692297 0.13429284 0.08946002
0001e0 89 7b 21 bc 8a 6f dd 3e 40 81 01 be cc e1 44 3f
       -0.009856113 0.4324916 -0.12646961 0.7690704
0001f0 2b c9 1b 3f e7 ca 06 3f bf c1 99 3d ee e5 c5 3b
       0.6085383 0.52653354 0.07507657 0.0060393726
000200 16 d5 10 3b 7a 57 2f 3d b5 f9 8c bd 79 c5 58 be
       0.0022099665 0.042808034 -0.06883565 -0.2116908
000210 34 be 8b be 94 4b b1 bd 39 ca 00 3e c9 b2 9b bf
       -0.2729355 -0.086569935 0.12577142 -1.2163936
000220 12 3c eb bf b4 b6 1d be 2f c1 28 c0 8b c2 e8 bf
       -1.8377707 -0.15401727 -2.636791 -1.818437
000230 96 5e 9c be 81 23 fe bf a4 f6 33 bf ca 75 8a bf
       -0.30540913 -1.9854585 -0.7029822 -1.0817196
000240 29 66 ae be 84 64 5c be ab fa ef 3e 98 50 04 3e
       -0.34062317 -0.21522719 0.46870932 0.12921369
000250 4e d8 c4 bd cf 1e 61 be 6a 2b 82 bd 05 c5 9f be
       -0.09611569 -0.21984409 -0.06355937 -0.31205
000260 45 c3 5a bf 11 b4 24 3d d1 4c 94 3e 9e 5c 22 3d
       -0.8545421 0.040210787 0.28964856 0.039639108
000270 f4 fe 4b 3e 36 30 71 bd d3 cd c3 3c 6e aa dd bf
       0.19921476 -0.05888387 0.023901856 -1.7317636
000280 78 94 01 bf e7 f8 20 3f 49 ca f1 bf 15 08 42 be
       -0.5061717 0.62879795 -1.8889858 -0.18948396
000290 0e bd b7 3e 02 f9 88 3c bd 2e 0e c0 84 97 e1 3d
       0.35886425 0.016720299 -2.2216027 0.110152274
0002a0 12 d7 10 bf c2 af b4 be 35 d9 4a bc 30 87 a7 3d
       -0.5657817 -0.35290343 -0.012380888 0.08180082
0002b0 1c 41 9e be a7 df 27 3d bc 28 db 3e dd 0e 04 c0
       -0.3090905 0.040984776 0.42804515 -2.0634072
0002c0 18 64 27 3e 77 e1 70 bf ab 3e dc bd 7b 5f f5 3d
       0.16346776 -0.9409403 -0.107541405 0.11981102
0002d0 70 5b 82 3e de 3e f0 3d 88 06 34 be 57 d8 30 3e
       0.25460386 0.11730741 -0.17580616 0.17270027
0002e0 65 fe 25 3e d9 41 8b 3e 05 bc 66 be 3b c5 51 3d
       0.16210325 0.27198675 -0.22532661 0.051213484
0002f0 32 50 f3 be fc d5 0e bd 97 61 4c 3e 17 ac bb 3d
       -0.47522122 -0.03487204 0.19959103 0.09163683
000300 01 26 ae bc b8 c7 51 bf dc a2 e8 bd 7d 91 80 3e
       -0.021258356 -0.8194537 -0.11359188 0.25111
000310 b2 9f 76 3e 54 5c df bf 06 4c cd bc 7f a8 36 3e
       0.24084356 -1.7450051 -0.025060665 0.17837714
000320 f5 ae 6c be dd 40 a0 be 0e 1e 9d bf ae f3 c5 3d
       -0.23113616 -0.31299487 -1.2274797 0.09665619
000330 71 b9 1f bf a1 d6 8a bf e2 97 74 3e 7d 8c e1 3b
       -0.62392336 -1.084675 0.23886064 0.0068832026
000340 74 18 0c 3f 77 1b 8d be 83 cc 40 3e 5a f4 8a bf
       0.5472481 -0.27560017 0.18828015 -1.085582
000350 2f 68 ab 3e 8d c9 a2 3d 7c 79 37 3e f4 0f 27 3e
       0.33477923 0.07948599 0.17917436 0.1631468
000360 eb 1f 63 3e 0a 85 31 3e e9 79 ae 3d c7 1d 2f 3e
       0.22180144 0.17335907 0.08519346 0.17101203
000370 0f 70 bd be 87 48 ac be 63 c8 39 bf ed 2d 13 bd
       -0.36999556 -0.33649084 -0.7257139 -0.03593247
000380 91 6e ed bf fa db 1b 3e bd 78 8f 3d 73 bd 44 3e
       -1.8549367 0.15220633 0.07005451 0.19212894
000390 6f 05 fa be 0d 89 68 3d 3e b0 89 bf ad 54 2d c0
       -0.4883227 0.056771327 -1.075691 -2.7082932
0003a0 a3 85 f5 bc 16 da 20 bf 4d b0 74 bc 71 1e 03 3e
       -0.02997095 -0.6283277 -0.0149346115 0.12804581
0003b0 5c 8e 3a 3d 84 05 aa be db 0c 11 be a3 78 e9 be
       0.04554592 -0.33207333 -0.1416506 -0.4559985
0003c0 6d 7a 42 bf 08 19 d8 bf 53 40 9d 3d 59 40 b7 3e
       -0.75968057 -1.6882639 0.076782845 0.3579128
0003d0 fb 6d b4 be d4 13 53 bd 21 ed 5b 3e 64 a7 53 3e
       -0.35240158 -0.05153258 0.21477176 0.20669323
0003e0 a7 eb 38 bd 37 49 dd 3d 0e 9a 3d be b4 49 c4 3e
       -0.04514661 0.1080498 -0.18515798 0.3833748
0003f0 d7 b9 52 be 67 1d 38 3d 73 ca 30 3d f4 54 9f 3e
       -0.20578705 0.044949915 0.04316182 0.31119502

a2.bias f4 [16]
000000 e0 c3 7a 3f ed 5a 61 3f a5 4a b0 be ec 0a f4 3c
       0.9795513 0.88029367 -0.3443195 0.029790364
000010 84 ba 1a 3f da 92 87 bf a5 0f 9e bf 36 6e 8a 3f
       0.6044085 -1.059169 -1.2348524 1.0814884
000020 a6 67 7f bf ed 3f ea be a8 a8 6f 3e ca 70 35 3f
       -0.9976753 -0.45751897 0.23404181 0.7087523
000030 35 c2 0b be 94 41 20 be f7 38 24 bf 24 f1 1c bf
       -0.13648303 -0.15650016 -0.6414942 -0.6130545

a3.weight f4 [32, 16, 3, 3]
000000 fe ef ee 3d 94 ed cb be 02 68 42 3e 46 46 93 3e
       0.116668686 -0.39829695 0.18984988 0.28764552
000010 01 5b 14 3e e0 be b9 be 95 7e a5 bd f4 48 12 3f
       0.1448784 -0.3627844 -0.08080784 0.5714257
000020 43 75 51 be 15 2e 3c 3f ba 1f 99 3f 9b 5a 36 3d
       -0.20454888 0.73507816 1.1962807 0.04452
000030 da fc d3 3e 41 86 45 be b7 fe 01 bd 02 08 ec 3c
       0.41403848 -0.19289495 -0.031737056 0.028812412
000040 ac 54 27 3e 80 e1 f6 3e 2c 23 0f bd 0a 56 f7 3e
       0.16340894 0.48218918 -0.034945652 0.4830783
000050 7a ae cd 3e 5a 32 99 3e 60 9c c8 3d 78 2c 61 be
       0.40172178 0.29921228 0.09795451 -0.2198962
000060 a6 ec 62 3e e9 a3 00 3e 4e 7a 78 3e a9 12 3b 3f
       0.22160587 0.12562527 0.24265406 0.7307535
000070 9e 03 68 be 63 96 dc bd 8a 2a ec bc f1 ee c1 3e
       -0.2265763 -0.107708715 -0.028828878 0.3787761
000080 3c 7d 40 bd 33 8c 72 be a7 f6 7a be 77 5d b6 3d
       -0.046994433 -0.23686294 -0.24508153 0.08904546
000090 f6 2c 0e 3f 6d 59 00 3f 40 d7 72 3e 6e 2f 16 3f
       0.55537355 0.5013645 0.23714924 0.5866612
0000a0 78 33 04 40 f1 de 04 3f de c5 fd 3e 00 4e 47 bf
       2.0656414 0.5190268 0.49565023 -0.77853394
0000b0 c6 5f c8 3e 79 1e 26 bf 6f b7 33 3c ba 45 29 3e
       0.3913557 -0.6489025 0.010969027 0.16530505
0000c0 61 69 a7 be ee 76 06 3e 03 d1 52 3e 9f fe 18 bd
       -0.32697585 0.13131306 0.20587544 -0.0373522
0000d0 43 9d 16 3e 95 e9 13 3c 7b ed 44 bf 1e 38 41 bf
       0.14708428 0.009027858 -0.76924866 -0.75476253
0000e0 4d ee 19 bd 16 09 26 bf 8a 95 bf 3e a4 f3 c8 3e
       -0.037580777 -0.64857614 0.37418777 0.39248383
0000f0 20 cf 55 be 4c 70 c8 bd 30 08 fd 3e f8 57 06 bf
       -0.20879793 -0.09787044 0.4942031 -0.5247798
000100 2d 24 8f be fa 84 e8 bc e0 c6 e0 3e 64 e4 a6 3e
       -0.27957287 -0.02838372 0.4390173 0.32596123
000110 03 47 5d bd f5 5a 57 3d 48 1f 9c be a2 cf 53 3d
       -0.0540228 0.052576978 -0.30492616 0.051711686
000120 73 59 2b be 2e 46 05 be 2a 62 54 3e a2 da f1 be
       -0.16733341 -0.13015053 0.20740572 -0.47237116
000130 ae 62 79 be 98 1c 9a 3c 1a a3 b5 bd 90 3a 81 bd
       -0.2435405 0.018812463 -0.08869 -0.06309998
000140 a2 35 1f 3d 9e b0 18 c0 9a e7 08 be b7 59 72 3e
       0.038869508 -2.3857799 -0.13369599 0.23667036
000150 1f 1a c5 3e 96 65 37 3c 33 bc 43 3e 92 81 bf 3e
       0.3849649 0.011193654 0.19114761 0.37403542
000160 27 15 89 3e a5 10 16 3e 0b 71 0f be 65 ca 36 3f
       0.2677395 0.14654787 -0.14007966 0.7140258
000170 c0 4d ef 3e 0e 98 ba 3e 23 d7 15 3e a5 18 9b 3e
       0.46739006 0.36444134 0.1463285 0.3029224
000180 33 01 bd be bd 67 10 be 93 f0 ff 3c 69 e0 af be
       -0.36914977 -0.14102073 0.031242644 -0.343509
000190 ff 29 7f be c3 5d b7 3e 5f 87 8b 3e a4 ce 86 3f
       -0.24918364 0.35813722 0.27251717 1.0531812
0001a0 3f 16 66 bf 82 75 08 3f fd 2f e5 be 82 31 73 be
       -0.89877695 0.533043 -0.44763175 -0.23749354
0001b0 1b c3 3d bf e5 e5 33 bc 7d 7b b5 3e a6 5a c7 be
       -0.7412583 -0.010980104 0.35445777 -0.38936347
0001c0 75 85 a9 bd 6b f9 a7 3e 8e 37 a5 be a0 19 a9 bb
       -0.08277408 0.32807478 -0.32268947 -0.0051605254
0001d0 8f 74 b6 3d 4d 0f 72 be 26 72 46 bf af 06 99 3d
       0.089089505 -0.2363865 -0.77517927 0.07471978
0001e0 62 da 81 3d 65 41 d7 be 85 27 94 be ce 8d cb 3e
       0.06340481 -0.4204208 -0.289364 0.39756626
0001f0 3c 20 87 3d cc f3 b3 bd 43 91 fd be e3 d6 97 be
       0.06597945 -0.08786735 -0.49524888 -0.29656133
000200 2c 87 b0 3e f2 58 4b bf 9c 7d e9 bd 6b a4 95 3e
       0.34478128 -0.79432595 -0.11400911 0.29227003
000210 e9 db a9 bd e2 44 5c 3d 65 d1 93 3e 70 4e ab be
       -0.08293898 0.05377663 0.28870693 -0.3345828
000220 aa 3c 15 3e b2 86 ad 3d 0b a1 6b be 4a 30 86 3e
       0.14573923 0.08472957 -0.23010652 0.26208717
000230 29 10 08 be f1 9b 95 3e d3 e3 56 3b f5 7e d2 3e
       -0.13287415 0.29220536 0.0032789602 0.41112486
000240 c7 99 40 3f 30 52 16 3f ef 8d b1 3e f6 3b 63 3f
       0.75234646 0.5871916 0.346786 0.8876337
000250 e0 4b d7 3e de a3 63 be 4b 68 aa 3e 35 08 43 be
       0.42050076 -0.22230479 0.33282694 -0.190461
000260 7a 32 8c bf d9 27 7f 3e 85 fb 81 be 91 dd 2a be
       -1.0952904 0.24917544 -0.25387207 -0.16686083
000270 c6 4e 43 bd be 52 cf be cc ba 89 bf 97 63 6a bf
       -0.047682546 -0.40492815 -1.0760131 -0.9155821
000280 e3 da e1 3e 9e 64 23 3e 7b 98 27 bf 39 03 dc be
       0.4411231 0.15956351 -0.6546704 -0.4297121
000290 78 8b 07 3f 57 16 ed be fb ab ad bd ee e3 34 3e
       0.5294719 -0.46306106 -0.08480068 0.17665073
0002a0 b1 4c 7a 3f c8 40 49 3e c2 74 0e 3e 70 24 30 bf
       0.9777327 0.19653618 0.13911727 -0.688056
0002b0 d3 b0 cc 3e 28 51 c5 bb ca 6d ad be 3c 55 04 3e
       0.39978656 -0.0060216375 -0.33872825 0.1292314
0002c0 69 81 0d bc 8c 1a 40 3d a3 3f aa be be bb 18 bf
       -0.008636811 0.046900317 -0.33251676 -0.5966147
0002d0 fd 9a 9b 3c 25 a3 ce be 7b ff a5 3d 7e 2a e6 3e
       0.018994803 -0.40358844 0.0810537 0.44954294
0002e0 23 0c bc 3d e9 fb ab be 39 c3 6e be 57 42 21 3e
       0.091820024 -0.3359063 -0.23316659 0.15747963
0002f0 fd b8 35 bf b3 fe 3a bf 18 7f 71 bf 26 d1 1f be
       -0.70985395 -0.7304489 -0.94334555 -0.15607128
000300 c0 4e 8b 3e 67 e3 7e bf 2e cd 08 3e f7 de 83 be
       0.2720852 -0.9956574 0.1335952 -0.25756046
000310 d9 c7 b8 3c 39 95 37 3e 7f db 02 bf ff e2 7a be
       0.022556232 0.17928018 -0.51116174 -0.24500655
000320 95 47 07 3e 98 c6 87 be 64 c7 18 bf 8e 7c 17 bf
       0.132109 -0.26518703 -0.59679246 -0.5917443
000330 37 48 bf 3c ed 17 24 bf d8 e8 39 be e3 95 89 be
       0.023349864 -0.6409901 -0.18155229 -0.26872167
000340 67 76 07 bf c6 1d 45 bf 06 9f 30 3e d6 5c 3a be
       -0.5291504 -0.76998556 0.17248163 -0.18199477
000350 17 f3 6f bf 9d 32 7b 3e 44 38 42 3f 7a 2f d3 be
       -0.937303 0.24531026 0.75867105 -0.4124716
000360 a9 16 78 bd 76 72 1b 3d 96 12 0b be 17 24 03 bf
       -0.060568485 0.037950955 -0.13581309 -0.51226944
000370 11 8a 57 be 56 5b 9d bc 17 28 c9 be bd a9 c2 bd
       -0.21048762 -0.019208591 -0.392884 -0.09505031
000380 90 99 6f 3c 74 b4 86 3e de 98 de be 9e da d4 3e
       0.0146240145 0.2630955 -0.43476003 0.41573042
000390 95 95 07 be 0e 65 6c bf e0 67 47 3d 38 fd 11 3f
       -0.13240655 -0.923417 0.048683047 0.57027006
0003a0 ff 14 2c 3f f1 12 88 3e c4 e4 b6 be f1 e4 1a 3e
       0.6721954 0.2657695 -0.3572141 0.15126397
0003b0 4c a8 12 3f e1 09 a9 3d 57 d6 47 3e 6b b8 4b bf
       0.5728805 0.082538374 0.19515358 -0.79578274
0003c0 53 62 03 bf d6 a9 04 be 3f 84 15 bf 27 12 74 bf
       -0.51321906 -0.12955412 -0.58404917 -0.953402
0003d0 38 c2 e2 be 98 8b 85 be 28 63 17 bf c7 50 dc bd
       -0.44288802 -0.26083064 -0.59135675 -0.107575946
0003e0 e1 7f 21 be 62 b5 a5 3d 79 00 32 3e 8a 0c 05 bf
       -0.15771438 0.08091237 0.17382993 -0.5197226
0003f0 53 9e 40 be 3f 18 82 3e 79 fc 5d 3e ac 83 11 3f
       -0.18810396 0.25409123 0.21678342 0.5684154

a3.bias f4 [32]
000000 1e ca 5f 3f b5 dd 68 3e 64 3e bb be 99 12 cf be
       0.8741778 0.22740825 -0.36571038 -0.40443876
000010 89 4d fa 3d 1f 05 78 bf a4 a4 76 3d 94 ab aa 3f
       0.1222182 -0.96882814 0.060215607 1.3333611
000020 19 63 b0 bd c8 ec 82 bc 81 12 23 bf a1 1a 01 bf
       -0.086126514 -0.015982047 -0.6370011 -0.5043126
000030 0a c5 39 3f 3b f6 c7 3f c0 ad f4 be 0d 04 5c 3e
       0.7256628 1.5622019 -0.4778881 0.2148592
000040 87 9e 92 3f 38 af 3e bd 5b 19 40 bf 4c 6a 01 bd
       1.1454629 -0.04655382 -0.7503869 -0.031595513
000050 ae 99 5d be e8 63 10 be 1c 86 82 be 8d d9 95 3f
       -0.21640655 -0.14100611 -0.25492942 1.1707016
000060 92 ff 2b 3f bd 05 7c bf e4 82 fb be aa 71 17 bf
       0.67186844 -0.98446256 -0.491233 -0.5915781
000070 f3 9d 62 bf fe f5 92 bf 90 bc 4f 3f e9 8b 9a bd
       -0.8852226 -1.1481321 0.811471 -0.07546217

b1.weight f4 [32, 32, 3, 3]
000000 46 b7 b1 3c 0a 03 3f bc 88 32 82 bb 12 b0 16 be
       0.021693837 -0.011658439 -0.003973309 -0.14715603
000010 09 e0 fd bc ef 29 5f 3d 5f d0 ba bd c9 59 32 3d
       -0.030990617 0.05448335 -0.09121775 0.043542657
000020 f1 4f 48 3d 84 04 e4 bd 71 63 65 3d f7 fd 2e bc
       0.048904363 -0.11133674 0.056003038 -0.010680667
000030 b0 5e 73 bd f1 74 c1 bd 61 34 8e 39 a1 20 ed bd
       -0.059416473 -0.09446133 0.00027123376 -0.11578489
000040 c1 ec cf bd e2 91 8b 3d f6 10 56 3c 3b 02 8e bd
       -0.10152579 0.06814934 0.013065567 -0.06934019
000050 34 9f 5a bd 1c bf be bd d7 17 c5 bc 1b ce 33 bc
       -0.053374484 -0.09313795 -0.02405922 -0.010974432
000060 e6 eb f0 bd e6 72 62 bc 46 94 54 bd 51 b6 31 bc
       -0.11763744 -0.013821339 -0.051899217 -0.01084669
000070 cb 1e 99 3b a1 1f 4c 3b 9f af 80 3d 68 8c 37 bd
       0.0046728603 0.0031146782 0.06283497 -0.044811636
000080 00 eb b9 3c 06 df 28 bc a7 a0 d6 bc f3 4f 04 bd
       0.022695065 -0.010307079 -0.026199652 -0.032302808
000090 05 d6 1a 3d 5d 30 65 3d fb b7 1d bd 41 36 2f 3d
       0.03780176 0.055954326 -0.038505536 0.04277635
0000a0 97 c3 83 bc d9 57 d0 3c a2 38 98 ba e8 ae f0 3c
       -0.016084475 0.025432514 -0.0011613558 0.029380277
0000b0 72 d2 12 bd a2 d5 63 bd 24 81 88 bd 4a a5 a5 bd
       -0.035845228 -0.055623658 -0.066652566 -0.08088167
0000c0 f9 00 b9 bc 15 dc cc bc 08 10 4c 3d 7e f2 a0 3d
       -0.022583472 -0.025007287 0.049819976 0.07858752
0000d0 c3 05 0b 3c 4d f4 12 bc 61 a5 82 bc 2c 94 1c bd
       0.00848526 -0.008969379 -0.015948 -0.038227245
0000e0 e4 48 00 bd ab 93 5b bd be 1e 2c bd 07 9d 49 bd
       -0.031319514 -0.053607624 -0.042021506 -0.04922202
0000f0 9d 05 81 3a b7 b4 39 bc 3d f4 de bc 0b 6c 65 3d
       0.0009843592 -0.01133459 -0.027216071 0.05601124
000100 7e dc 93 3b 6e d9 1b 3d 39 53 d3 bc 55 57 dd bd
       0.0045123687 0.038049154 -0.02579652 -0.10807673
000110 98 14 97 3d 67 88 a6 bd 3b ac 78 bb dd 2e d0 bd
       0.07376975 -0.081314854 -0.0037944454 -0.101651885
000120 3c 68 6a bd c2 17 25 3d 23 65 1e bd f1 16 4f bd
       -0.057228312 0.04030586 -0.03867067 -0.050558988
000130 65 8b 9c bd e7 76 2c bd 5b 25 64 bc 23 24 1d 3d
       -0.07643775 -0.04210558 -0.013924922 0.03836454
000140 a3 a1 75 3d 84 e9 e3 bd 89 81 b8 bc 1f 8e 6f bc
       0.059968602 -0.11128524 -0.022522705 -0.014621287
000150 ff 85 95 bc fb 99 2a bd 97 6b 06 bd bc 09 18 be
       -0.01825237 -0.041650753 -0.03281745 -0.14847463
000160 92 9b 7c bc 90 ac 9e bd a0 69 bd bd c0 f1 ad bd
       -0.01541795 -0.077477574 -0.09248662 -0.08493376
000170 0d 03 1d bd 02 b8 46 bd 91 be 00 be a5 f3 dd bb
       -0.038332988 -0.048515327 -0.12572695 -0.0067734295
000180 20 e9 2c bd b1 45 4d be 3e 62 97 bd cf 99 65 3d
       -0.042214513 -0.20046116 -0.07391785 0.056054886
000190 d2 6d f7 3c 20 56 46 bd 5d 5e 5a bd 5e d7 0c bb
       0.030203734 -0.04842198 -0.053312648 -0.0021490674
0001a0 3d 51 0a 3d ef 1a 69 bd 9b 6f b0 bd 58 d9 6b bd
       0.03376888 -0.05691045 -0.08615037 -0.057580322
0001b0 83 8e ed 3c b2 ce a6 bc d4 6d 0c 3d 66 4c 2e bd
       0.028998619 -0.020362232 0.034284428 -0.042553328
0001c0 4c 59 f0 bd 08 d7 a7 3c 29 d1 b1 bd ec a8 e8 bd
       -0.11735782 0.020488277 -0.08682472 -0.11360344
0001d0 26 4a d0 bc 87 fc 3e bd 01 fd 96 bb 22 1d 00 bb
       -0.025425982 -0.046627548 -0.004607797 -0.0019548615
0001e0 94 09 ab bd 2a fa ca bd 9d 8e a4 bd 42 e3 85 bc
       -0.08351436 -0.09910996 -0.08035014 -0.016343717
0001f0 23 49 9b 3c ab 50 24 bd 0f b5 6a ba bb 1c 80 bd
       0.018955773 -0.040115993 -0.00089533714 -0.0625548
000200 b6 e8 14 bd ee 4c 05 3d d2 37 d3 bd 86 34 29 3c
       -0.036354743 0.03254407 -0.10313381 0.010327464
000210 7c d9 38 bc 4b 47 64 3c bd c3 bd bc 08 b1 85 bd
       -0.011282321 0.013933013 -0.023164624 -0.06527907
000220 7d 8a e6 bd 63 36 57 bd 7d e7 aa bd 29 0c 57 bd
       -0.11256883 -0.0525421 -0.08344934 -0.05250183
000230 90 36 1e 3c 58 41 0e bd a8 a9 37 bd 0d ea 82 bd
       0.009656563 -0.034730285 -0.04483953 -0.06392298
000240 18 f6 8b bd 22 03 c5 bc 06 8f fa 3b 98 de af ba
       -0.06834048 -0.024049345 0.0076464443 -0.0013417779
000250 80 52 0a bd aa e3 72 bd a8 f5 24 bd 83 0e 94 bd
       -0.033770084 -0.05929915 -0.04027334 -0.072293304
000260 d3 22 37 bd 21 5b 18 bd bc 09 5b 3d 3f af d0 bb
       -0.044710945 -0.037196282 0.05347608 -0.006368547
000270 5c 0f 8a bb e9 97 9d bd 37 65 9c ba cc 8d 0f 3c
       -0.0042132568 -0.0769499 -0.001193202 0.008761834
000280 ab 94 cc 3d 4b 5c 4a 3d 41 88 99 bd a9 2f fa bc
       0.09989294 0.049404424 -0.074966915 -0.030540304
000290 b9 8e 4c bd c1 99 2d bd 04 1e c5 bd 38 bc 05 bc
       -0.0499408 -0.04238296 -0.09624866 -0.008162551
0002a0 f8 49 ef bc 42 90 09 be 19 85 63 bd 3a 2a 87 bd
       -0.029210076 -0.13433936 -0.055546854 -0.06599851
0002b0 43 0d 15 bd c6 7d 7e bd 83 d9 44 bd e9 91 22 bd
       -0.0363896 -0.062131666 -0.048058998 -0.039689932
0002c0 2b 05 92 ba 25 8a 92 bd c5 b1 3c 3a b0 5f 01 bc
       -0.0011140456 -0.07155255 0.00071981206 -0.007896349
0002d0 c6 a3 33 bd d7 28 77 bc 4e 89 3c bd ab a6 f5 3c
       -0.04385736 -0.015085421 -0.04602938 0.0299867
0002e0 c3 6f f6 bc 33 67 bf 3b ca f3 dc ba aa 47 0d 3d
       -0.030082589 0.0058411597 -0.0016857323 0.034492172
0002f0 8e c9 38 3c a7 1f ea bd 6c 41 8f bd 14 5c cf bd
       0.011278523 -0.114318185 -0.069949 -0.101249844
000300 c0 74 de bd 7f f8 b8 bd 1b 35 18 bd 6a a6 c5 bc
       -0.10862112 -0.09031772 -0.03716002 -0.024127204
000310 aa 72 c8 bd 58 b7 4f bd d8 7d bd bc 70 26 96 3d
       -0.097874954 -0.05071196 -0.023131296 0.0733155
000320 53 98 7f bb 8a d8 d0 bc 2e e1 53 bd 09 e6 46 3b
       -0.0039000704 -0.025493879 -0.05172842 0.0030349514
000330 c5 07 4b bd 55 7f 9e bd 82 c0 10 3d 08 d4 40 bd
       -0.049567956 -0.077391304 0.03533984 -0.04707721
000340 ab e6 e9 bd 59 51 8d bd 8c 17 2c be 0e 07 27 be
       -0.114209495 -0.069002815 -0.16805857 -0.16311285
000350 f0 16 66 bd 09 21 45 bd 2e fa 29 be a7 a6 04 3d
       -0.05617422 -0.048127208 -0.16599342 0.032385495
000360 0a 86 6a bd a4 0a 75 bd e2 49 22 bd f9 ec 13 3d
       -0.057256736 -0.0598246 -0.03962124 0.036114667
000370 23 ce e6 bd 04 86 77 3d 06 00 04 bd d3 36 fb bc
       -0.11269786 0.06043054 -0.032226585 -0.03066579
000380 f3 a1 e9 3a b4 59 33 bd 8e 95 46 bd ea a8 20 bd
       0.0017824754 -0.04378672 -0.04848247 -0.03922359
000390 b6 69 6e bc d2 ed 95 bd 44 36 37 bc e5 6b 04 3c
       -0.014551571 -0.07320751 -0.0111823715 0.008082365
0003a0 70 96 39 bd 14 6b e9 bd 35 60 2a 39 f3 00 00 3d
       -0.045309484 -0.11397377 0.00016248303 0.031250905
0003b0 e7 a7 70 3d f5 6d ae bc 56 02 54 bd 37 94 38 bd
       0.058753874 -0.021292666 -0.05176004 -0.045063224
0003c0 ca d9 4c be cc 22 99 bd e3 bb 96 bd cc c8 27 bd
       -0.20004955 -0.0747734 -0.07360055 -0.04096298
0003d0 02 8f e2 bc 05 3d f9 3b ee f4 d3 bd ee f5 35 be
       -0.027656082 0.007606151 -0.10349451 -0.17769596
0003e0 57 53 da bc d2 d6 0a bc 0f fe d7 bd c3 1a bc bd
       -0.026651068 -0.008474069 -0.10546505 -0.09184792
0003f0 a3 ba d2 bd ab 60 c8 bd cc 05 99 bd 50 5e 5f bc
       -0.102895044 -0.09784063 -0.07471809 -0.013633326

b1.bias f4 [32]
000000 78 72 81 be 57 d2 97 3d 5d a3 9b bd 44 83 3d be
       -0.25282645 0.07413166 -0.075995184 -0.18507105
000010 9e 34 e2 bd 3c c5 47 be 04 88 e0 bd 05 9a f2 bd
       -0.11045192 -0.19508833 -0.10963443 -0.11845783
000020 43 39 d7 be 5a 69 ff be 02 3a cb be 3e c6 fa bd
       -0.42035875 -0.49885064 -0.39692694 -0.12244843
000030 a7 f7 59 3e fd d5 48 bf b0 d5 62 3d 7f 48 36 be
       0.21285878 -0.7845152 0.05537957 -0.17801093
000040 77 52 1d bf fe 4f 37 be 27 4a b0 be 89 b1 af be
       -0.61453956 -0.17901608 -0.34431574 -0.34315136
000050 09 18 59 3f 6d 8a 2d bf bd 3a f1 bd 8c ca 8e 3f
       0.848023 -0.67789346 -0.117787816 1.1155562
000060 0d 84 2a be 73 18 12 3e db de 54 be d5 75 02 bf
       -0.16651936 0.14267139 -0.20788138 -0.5096105
000070 7c 28 68 be 5c 0c 0a be 81 4e 0f bf 6d 98 69 be
       -0.22671694 -0.13481277 -0.5597916 -0.22812052

b2.weight f4 [32, 32, 3, 3]
000000 99 e3 8c bc 8a 36 31 3c 30 7e 45 3d 51 cc fe 3c
       -0.01719837 0.010816226 0.048216045 0.031103285
000010 2f 57 e2 bd 6a cd 5e bd f8 2a 8f bd 80 61 b4 3c
       -0.11051785 -0.054395117 -0.069906175 0.022019148
000020 01 76 42 3c 9f 9f 1d bf b0 48 d1 3e dc 2e f1 bb
       0.011868955 -0.6157169 0.4087577 -0.0073603224
000030 78 78 99 bf 9e a2 71 bf ab 1b c3 be 9e ef e9 3d
       -1.1989889 -0.9438876 -0.38107046 0.114226565
000040 07 70 02 3c 2a 5f 22 3e b1 fa e6 bc ea b0 46 3b
       0.00796128 0.15856615 -0.02819571 0.0030317851
000050 b2 aa 09 3d d2 60 cd 3c d7 36 9a bb 92 32 9f bd
       0.033610053 0.025070582 -0.0047062445 -0.077733174
000060 c8 b6 7e 3c 24 4f b5 bb 75 cf 40 bd 17 8e ec bd
       0.015546508 -0.005533116 -0.047072846 -0.11550539
000070 d6 e9 89 bf c5 4d 2c be be 70 4a 3d 7b 07 22 3f
       -1.0774486 -0.16826542 0.049423926 0.63292664
000080 a3 f9 1d bd 1e a6 a6 3d 7c 66 24 bf 3c 0e 1b bf
       -0.03856815 0.08137153 -0.6421888 -0.60568595
000090 a5 43 e2 bb d1 1a b1 3b d2 da 69 3d f9 20 c8 3c
       -0.0069050365 0.005404808 0.05709345 0.024429785
0000a0 0a ae 8a bd 4f 6b 48 3c cf 86 39 bb 0c 21 91 bc
       -0.067714766 0.012232616 -0.0028309112 -0.017715953
0000b0 db 99 5b bd 04 17 29 bf 06 1b 10 3f 7b c5 b4 3e
       -0.053613525 -0.66050744 0.56291234 0.35306916
0000c0 78 12 92 bf 4f 39 e6 3d e8 c0 62 3e 60 39 50 bd
       -1.1411886 0.112413995 0.221439 -0.050835967
0000d0 a2 4b e9 be 0e 26 ad 3d df c4 20 3d 1f ef a8 3d
       -0.45565516 0.08454524 0.03925025 0.08248734
0000e0 87 67 06 3d 3e 82 0e 3d 11 63 39 3c 99 6d 34 bb
       0.032813575 0.034792177 0.011315123 -0.0027531146
0000f0 52 a6 95 bc 13 d9 c9 39 2d ba 8f bd 2f c6 42 3b
       -0.018267784 0.0003849944 -0.07017932 0.0029720177
000100 75 07 80 b9 dd 16 0f bc c0 36 80 3c b9 ef d5 3b
       -0.00024419618 -0.008733478 0.015651107 0.0065288213
000110 d7 c3 c7 bc 8d 35 f5 bb 28 55 98 bc 9f 56 33 bd
       -0.024385376 -0.0074831904 -0.018595293 -0.04378378
000120 0b 5f ec be 93 00 61 be dd b4 4d be e8 df a8 bd
       -0.46166262 -0.21972875 -0.20088525 -0.08245832
000130 12 92 b5 bd 69 1e 9d be e7 ec 41 3f b2 bd 1c be
       -0.08865751 -0.30687264 0.7575211 -0.15306738
000140 4a 7d 05 bf 64 b3 ce bd 61 26 0b be 66 fd 36 3f
       -0.521443 -0.1009281 -0.13588859 0.71480405
000150 fd 8f 25 bf 33 01 da 3e d3 b7 87 bf ed fd cd 3e
       -0.64672834 0.4257904 -1.0602974 0.40232792
000160 44 6b 97 be 67 9b e9 3d dc 99 8b bd fd 39 a1 3d
       -0.29574025 0.11406594 -0.06816456 0.078723885
000170 bd 68 35 3e b5 0e b9 be bd 74 44 3d 2d 3a bd be
       0.17715736 -0.36144033 0.047962893 -0.36958447
000180 13 ce 62 3f 69 43 33 be 75 ba 83 3e 27 64 86 3f
       0.88595694 -0.17506184 0.25728193 1.0499314
000190 61 e8 50 bf 01 af 7d bf 63 02 9d be df ee ac be
       -0.8160458 -0.9909516 -0.30665883 -0.33775994
0001a0 a3 a6 31 bf 20 ae e3 3e ae c1 de be d6 1b f9 bc
       -0.6939489 0.44468784 -0.4350714 -0.030408781
0001b0 c8 95 ba 3f bf 7c 76 bf 46 ca cf be 32 18 44 3c
       1.457696 -0.962841 -0.4058401 0.011968659
0001c0 82 c9 cb bd ed 24 da be 2a 26 98 3d 03 b9 c9 be
       -0.09950544 -0.42606297 0.07429154 -0.39398965
0001d0 84 89 55 bd b5 9d 34 bf 48 3c 33 3e 93 7d ee 3e
       -0.0521331 -0.7055314 0.17503464 0.4658018
0001e0 d7 54 8d be ec 02 86 bf 7f 64 72 3d fd 08 82 3c
       -0.2760379 -1.0469642 0.05917787 0.015873427
0001f0 dc 92 46 be 6c 63 4b 3f 84 73 31 bf 56 a1 4d bd
       -0.1939196 0.7944858 -0.6931689 -0.05020269
000200 a6 48 93 be 20 7b 6f 3e 1b 8f 52 3f 77 a1 77 be
       -0.28766364 0.23386812 0.8224961 -0.24182688
000210 17 27 82 3f 23 ad bc bd 42 a0 a8 3d b5 5b da 3d
       1.0168179 -0.09212711 0.08233692 0.10662023
000220 96 85 b0 3d 8c 96 b8 3d 9d 4b 1c bd d3 fb 8d bb
       0.086192295 0.090130895 -0.038158048 -0.0043329983
000230 52 d5 ea ba f5 39 64 3b 85 45 22 3d 97 82 d4 bc
       -0.0017916358 0.0034824584 0.03961708 -0.025941176
000240 c6 1a 82 3b 30 9d 3f 3f 04 0e 22 3e 8f 32 93 3e
       0.003970477 0.74849224 0.15825659 0.2874951
000250 1e fc a0 3e 7c 55 dd 3e 2a 79 9f be 32 56 e3 be
       0.3144235 0.43229282 -0.31147128 -0.444017
000260 fa ed 8d be 59 2b c3 3c 9c c7 97 bd 6a aa 5c bd
       -0.27720624 0.02382438 -0.07411119 -0.053873457
000270 8a b9 08 bd 0e a9 ac bd 05 f4 e2 bc 14 8b 3b 3c
       -0.03338007 -0.08430682 -0.027704248 0.011446733
000280 54 20 2c 3c 28 49 60 bd 4a 3b d8 be 26 74 d1 3e
       0.0105057545 -0.054757267 -0.42232734 0.40908927
000290 a2 41 a1 3e 35 2f 0b 3f 4d 30 b5 3e ec 26 a7 be
       0.31495386 0.5436891 0.35388413 -0.32646883
0002a0 95 fd 2d be 7f a5 f1 3e 15 3d 12 be c3 c0 6b be
       -0.16991265 0.47196576 -0.14281113 -0.23022752
0002b0 15 ae 2f be 1c 92 0a bf c8 28 0d 3f 95 b6 1b bf
       -0.17156251 -0.54129195 0.5514035 -0.60825473
0002c0 32 5e 3e bf 38 27 de 3d be 50 35 3f 8b 7b 66 3e
       -0.7436248 0.10847324 0.7082633 0.22508065
0002d0 57 02 08 bc d3 de 7b bf 48 ef 6d 3e 97 b2 84 bf
       -0.008301339 -0.9838688 0.2323581 -1.0367001
0002e0 37 65 ba be fd 7b ff bc 8a af 0a bf 60 f7 7c 3e
       -0.36405346 -0.031187052 -0.541741 0.24703741
0002f0 0e 35 56 3f 0d 4d cc be d1 18 f0 bb a7 2f 03 bd
       0.83674705 -0.39902535 -0.007327177 -0.032027867
000300 2b b0 d8 3e 0f 12 e0 3c 01 aa ff bc d0 92 3c 3e
       0.42321905 0.027352361 -0.031208994 0.1841538
000310 0b e8 a7 be b3 0b 4e be c0 9e 53 bb e7 02 27 bd
       -0.32794222 -0.2012165 -0.0032290667 -0.040774252
000320 17 5c f3 3c a0 64 df bc a9 34 11 bd c7 2a 61 bd
       0.029706998 -0.027269661 -0.03545061 -0.054972436
000330 e9 a9 6f bd 26 c0 46 bc 68 b2 eb 3c 6d c2 b1 3e
       -0.05851165 -0.012130773 0.028771594 0.34718648
000340 87 60 ab 3e 2c ac 58 be 39 8b 59 be ef 61 56 bf
       0.33472082 -0.21159428 -0.21244515 -0.83743185
000350 4c bf 5b be 25 6e 1e be a2 f1 12 be 3c 75 25 be
       -0.21459693 -0.15471704 -0.14349988 -0.16158003
000360 cf 1f 18 bd 27 37 c7 bc 1c b8 0f bd 0a ef 85 bc
       -0.03713971 -0.02431829 -0.03508769 -0.016349334
000370 44 ae 06 3d cf b5 e4 bb 95 18 16 3d 50 c8 d2 3c
       0.032881036 -0.006979681 0.036644537 0.025730282
000380 33 8b 41 3d 54 96 0e be 80 ac 08 be 4b 48 2a 3e
       0.04725189 -0.13924533 -0.13347054 0.1662914
000390 2b 0a ab bd 3c 4c 36 3e 2b bb e6 bd a4 a1 da be
       -0.08351549 0.17802519 -0.11266168 -0.42701447
0003a0 f9 40 09 bf 49 fc b6 bd d6 6f d2 bd be d0 5a be
       -0.53614765 -0.08934838 -0.10275237 -0.21368691
0003b0 66 25 5c be 0a 37 a3 be ed 7f 8c bd c7 40 6b 3d
       -0.21498641 -0.3187793 -0.068603374 0.057434823
0003c0 fd 5b 39 3c 7e c8 f4 bd 9d 1a 58 be 54 e8 8b bf
       0.011313436 -0.11952303 -0.21103902 -1.0930276
0003d0 cc 2c 6c 3e 93 c6 14 bf e2 9c 0e 3f 23 c9 a5 bd
       0.23063964 -0.581155 0.55708134 -0.080950044
0003e0 59 5d 22 3f b5 92 8d 3e b9 c9 ff be 5f 03 4d 3f
       0.6342369 0.2765099 -0.4995859 0.8008327
0003f0 7a 46 3a 3f 2f 57 ea 3e 1b 12 1a bf c6 27 ac bb
       0.7276379 0.4576964 -0.60183877 -0.005253765

b2.bias f4 [32]
000000 95 f9 80 bf 3e 0f 58 3f e9 6b c7 be d3 39 33 be
       -1.0076166 0.8439826 -0.38949516 -0.17502527
000010 47 c6 82 3e 9e 41 a7 bd 45 3b 46 3f 32 af 0d 3e
       0.255419 -0.08166812 0.7743419 0.13836363
000020 c7 20 ce bd 58 9b bc bd 8d 58 d6 be a4 b4 b3 3e
       -0.100648455 -0.09209317 -0.41864434 0.35098755
000030 2f ef 82 be 66 d4 24 3f 8a 98 7e 3e 28 d5 26 bf
       -0.25573108 0.64386594 0.24862877 -0.65169
000040 5e 36 80 3e 2b 9b 35 bf 85 f3 89 be 17 82 2d bf
       0.2504148 -0.7093989 -0.26943603 -0.67776626
000050 ff 6b e3 bd d3 1e e7 3e 0f 00 f8 be a8 3b 21 bf
       -0.11104583 0.45140705 -0.48437545 -0.62981653
000060 df 1e f9 3e 77 b7 b5 3a 8c e5 fe be 42 e8 5a 3f
       0.48656365 0.0013863881 -0.49784505 0.8551065
000070 0f 9d 8a bf b7 06 e1 3e f8 7f 68 bf 7f b8 ee bd
       -1.082918 0.43950436 -0.90820265 -0.116562836

b3.weight f4 [64, 32, 3, 3]
000000 b2 c2 62 3f 9a 3c eb 3d 93 8a 14 bf 5e e6 cc 3d
       0.8857833 0.11486168 -0.5802395 0.100048766
000010 29 f5 85 bc 33 6e 67 bd b5 47 85 bf a3 86 9e bd
       -0.016352253 -0.05650158 -1.0412508 -0.07740524
000020 da 36 15 bf d0 13 07 bf 57 57 42 bf 7b db 91 be
       -0.5828682 -0.52764606 -0.7591452 -0.28487763
000030 b3 48 6d be c0 51 14 bf 40 91 1a bf 4d 80 b9 be
       -0.23172264 -0.5793724 -0.60377884 -0.36230698
000040 fc 1d b9 bc 71 aa 96 bd d6 51 a1 be d3 e6 13 3f
       -0.022597305 -0.07356728 -0.31507748 0.57774085
000050 b4 b5 68 3d 54 c4 1f bd 53 16 1f be ec 88 55 3e
       0.05681391 -0.039005592 -0.1553586 0.20853013
000060 cd ca ec 3c 66 9a 2f 3d 5f 56 88 3e f8 dc ca 3e
       0.028905297 0.042871855 0.26628396 0.3962171
000070 06 04 74 bd 0c 87 fb 3e 21 ab ef bd 98 dd 90 3e
       -0.05957415 0.4912647 -0.11702562 0.28294063
000080 9b 3b 44 3d a9 c4 e5 3e 93 3b a2 3e 37 e2 55 bf
       0.047908407 0.44876602 0.31686077 -0.835483
000090 4b 70 95 be 18 93 89 be c6 4d 03 bf 9c 1e 13 3d
       -0.29187235 -0.26870036 -0.5129055 0.035917863
0000a0 7f 91 ca 3e a4 84 72 3e 63 85 10 3f 81 a7 3b 3f
       0.3956413 0.23683411 0.5645353 0.73302466
0000b0 4c 1d ad 3c f1 45 05 bf 80 c1 94 3e 93 4d 6b 3e
       0.021132134 -0.5205985 0.2905388 0.22978811
0000c0 67 8c 81 3e c8 7c c6 3c 38 4b 64 be b5 bf 4c bd
       0.2530243 0.024229422 -0.22294319 -0.049987514
0000d0 4d 51 f4 bd e6 6a ff 3e 83 4e 0e 3e ab 4c cd bd
       -0.119295694 0.49886245 0.13897137 -0.10024389
0000e0 01 14 30 bf 35 6d c1 3d 8c f9 a1 be ab 96 25 bf
       -0.68780524 0.09444658 -0.31635702 -0.64683026
0000f0 36 24 37 be 43 3a ae bd b7 51 05 bf c0 d5 e3 be
       -0.17884907 -0.08507206 -0.5207781 -0.44499016
000100 98 2d ff 3e e5 3b 93 3e 3a 63 2c be d0 d1 5d bc
       0.49839473 0.28756633 -0.16834727 -0.013538793
000110 a5 ac a9 be ac 79 17 3f 92 df 95 3e d3 ce 7f 3e
       -0.3313953 0.5917003 0.29272133 0.24981241
000120 3c c4 b3 bd fc 61 4a be b4 d6 97 be 38 ea 85 bd
       -0.08777663 -0.1976394 -0.29655993 -0.06538814
000130 9c c9 5d 3f 48 86 71 3e 47 b3 ec 3d 95 0e f3 3e
       0.86635756 0.2358638 0.11557632 0.47472063
000140 5e 0d cc be 52 88 09 bf 5c d3 59 bd 6e ab 5b 3d
       -0.39853948 -0.53723633 -0.053180084 0.053630285
000150 2b a9 c9 be c5 51 c4 3d 0e 2c 0f 3e 6b 5f d7 3e
       -0.39386877 0.09585909 0.1398165 0.42064986
000160 fc e2 a4 3e 10 97 d5 3d d9 ea 86 3e 82 54 ba be
       0.32204425 0.104292035 0.2635105 -0.363926
000170 d0 f7 81 bd 3c 5b c8 bc 3d ef 0c be 3e 16 43 3f
       -0.063460946 -0.024457566 -0.13763137 0.76205814
000180 9f 25 de 3d 1b de 2d 3f 14 39 a5 3e 44 35 65 bf
       0.108470194 0.6791703 0.3227011 -0.895344
000190 99 79 19 bf 98 eb 2a bf fc 1a b9 be d1 f7 43 3e
       -0.5995117 -0.6676574 -0.361534 0.19137503
0001a0 a8 d8 0a 3f 26 b5 06 3e 7d 1d b5 be 9e 2d ac be
       0.5423684 0.1315504 -0.3537406 -0.33628553
0001b0 90 83 90 3c 2a f3 0e bf 2a 27 06 be 49 35 df be
       0.017640859 -0.5583979 -0.13100877 -0.4359534
0001c0 a6 a8 c3 39 a7 3c b6 bd 4c d1 a1 be d8 6a 86 be
       0.0003731895 -0.08898287 -0.31604993 -0.2625339
0001d0 b8 e0 48 bf 6a 62 ac 3d 82 56 15 3c ba 6e d2 be
       -0.78467894 0.084172085 0.009114863 -0.41100103
0001e0 06 93 8e 3e c2 16 f3 be 64 ac 8c be 56 96 d9 be
       0.27846545 -0.474783 -0.27475274 -0.4249751
0001f0 ad 7d bd be fc 13 50 bf 6c 90 3b bf 5f 30 3c bf
       -0.37009946 -0.81280494 -0.73267245 -0.7351131
000200 3a b7 b8 3e d0 4a f8 3c 2a 97 7b 3c af 1b 0f 3e
       0.3607729 0.03030911 0.015355865 0.13975404
000210 89 3f c1 3d 9e 52 3b be 8d e7 65 3f 7b cd 1c 3f
       0.094359465 -0.18293235 0.89806443 0.6125104
000220 bd 53 a3 be d8 d4 f8 bd 59 f9 5a 3d 9e 52 d0 bd
       -0.31899825 -0.12149972 0.053460453 -0.10172008
000230 13 99 34 3f 6a 7b 93 3e 0a c4 d6 be 7f 0a 06 3f
       0.7054607 0.28805095 -0.4194644 0.52359766
000240 6a 5d 4e bf b4 5e 13 bd 00 c8 17 bf 13 71 75 be
       -0.8061129 -0.035978988 -0.5928955 -0.23968916
000250 77 da 47 3f f9 6c be 3e 84 41 2c 3d e4 53 46 bf
       0.78067726 0.37192515 0.042054668 -0.77471757
000260 15 f2 1a bd b8 22 04 bf 01 83 dd 3e 2b 24 8e bd
       -0.037828524 -0.51615477 0.4326401 -0.06940492
000270 7e 50 91 be b8 b4 89 3e 89 52 08 bf b2 f1 3e 3d
       -0.28381723 0.2689569 -0.5325094 0.046617217
000280 9b 3c 8c 3e 79 24 6d 3e 06 46 0c 3e 43 6e 8a 3d
       0.27389988 0.23158444 0.13698587 0.06759312
000290 4f 3b b2 3e 9e 1e b4 3e 90 30 68 3d 3f b1 b8 bd
       0.34810874 0.3517961 0.056686938 -0.09018182
0002a0 14 b2 e2 bd a2 8d 25 3e cd ae a4 3e 78 29 15 3f
       -0.11069122 0.1616731 0.32164612 0.582664
0002b0 74 34 3d bf ee 4f 3e 3f 65 b7 2d bf 1f 09 c2 3d
       -0.7390816 0.74340713 -0.6785796 0.09474396
0002c0 d4 6e 49 be 24 f8 1b bf 7d 4a 4f 3f af 1f 89 be
       -0.19671184 -0.6092551 0.80973035 -0.26781985
0002d0 2a b3 23 bf d9 3c a7 be c4 c2 5f be 6f 4a b6 be
       -0.6394526 -0.3266361 -0.21851641 -0.35603663
0002e0 ca f1 80 3f 5c 7e dd bd d9 18 29 bf e5 72 9f 3d
       1.0073788 -0.10815117 -0.6605354 0.07785586
0002f0 62 a6 22 3f d4 14 19 3f 4e 2a 33 be 01 b9 73 be
       0.6353513 0.59797406 -0.17496607 -0.23801042
000300 6f ef 04 bf 4a f9 17 3f 36 91 0e be 65 74 3d be
       -0.51927847 0.5936476 -0.13922581 -0.18501432
000310 df de b9 be bb 1f 25 bb 00 0d 0d be 79 f4 dc be
       -0.3630285 -0.0025195915 -0.1377449 -0.43155268
000320 bb 33 69 3f c6 6e 66 3c ec 68 af 3e 61 78 ff bd
       0.9109456 0.014064496 0.34259737 -0.12474132
000330 a8 83 23 bf c6 09 c8 3e 1b e9 d0 3c 61 52 84 3d
       -0.63872766 0.39069957 0.025501778 0.06461025
000340 44 78 b1 be b2 b4 09 bf 54 66 bd 3e 5b 80 b6 3e
       -0.34662068 -0.53791344 0.36992133 0.35644802
000350 18 c2 71 bf ec 96 6b 3e 91 1b ad bd 96 cd ea be
       -0.9443679 0.23006791 -0.084525235 -0.45859975
000360 aa 1c 24 3f af 3b 8b bd 6d 4f 5b be 62 b5 3f bf
       0.6410624 -0.06798493 -0.21417017 -0.74886143
000370 92 93 32 bd 24 ed 37 be f2 e1 3b bd 3e 3d 33 3d
       -0.043597765 -0.17961556 -0.045869775 0.043759577
000380 c3 2e 0e 3e 63 f2 35 bf 8c bc 69 be de 6f 22 3f
       0.13885026 -0.7107298 -0.22825831 0.63451946
000390 cf 4a 9e be a5 b5 fc bd 25 8d 0d 3e 5d 7a 32 3e
       -0.3091645 -0.123393334 0.13823374 0.1742949
0003a0 a0 7e 6c 3f ad 76 05 3f 3a 12 ec be 70 43 5f be
       0.92380714 0.5213421 -0.46107656 -0.21803069
0003b0 33 34 83 3c e4 04 0d 3e 3c ff 1b bf db 31 dc 3e
       0.016016101 0.13771397 -0.6093633 0.43006787
0003c0 c0 37 cf be 10 57 26 3f 00 20 2c 3f 71 ac 89 3e
       -0.4047222 0.64976597 0.6723633 0.26889375
0003d0 96 ac 86 be 21 c2 00 bd f6 bb ec 3d 12 57 15 3e
       -0.26303548 -0.031435136 0.11559288 0.14583996
0003e0 a3 7e f4 be 45 00 02 3e c9 7b 8a be 06 11 02 bf
       -0.47752866 0.12695415 -0.27047566 -0.50807226
0003f0 7c 29 90 be e6 8b 25 3f 50 01 c7 3e 75 93 72 be
       -0.2815665 0.64666593 0.3886819 -0.23689063

b3.bias f4 [64]
000000 21 8f 24 bf 25 26 0e bd 55 e3 78 be f1 05 0b bf
       -0.642809 -0.034704346 -0.2430547 -0.5430594
000010 90 3d b0 bd 90 81 c7 bd 59 77 70 be 79 c5 bf be
       -0.08605492 -0.09741509 -0.23483028 -0.37455347
000020 c1 18 5a 3e b0 c7 0b bf ab 6f 18 3e 46 98 68 bd
       0.21298505 -0.54601574 0.14886348 -0.056785844
000030 37 c9 b5 be cb 62 3c 3e 46 9d 18 bf 77 c2 28 3e
       -0.35505077 0.18397062 -0.5961498 0.16480432
000040 4d f6 a9 bd b6 13 ca 3e 1a e0 88 be f2 40 dd be
       -0.08298931 0.39468163 -0.26733476 -0.43213612
000050 8f c1 c6 bd f3 c1 1b be d4 7a 39 3f c9 f0 a2 be
       -0.09704887 -0.15210705 0.72453046 -0.3182433
000060 07 0f d7 bd 37 08 27 3e a7 fa 5a 3e 0a c5 cf be
       -0.10500913 0.16311727 0.21384679 -0.40580016
000070 ff fa 5c be 2a 38 6f 3f cd 00 17 be 28 d9 31 3e
       -0.21580122 0.93445075 -0.14746399 0.17367995
000080 f2 cb d3 be b6 f4 6b bd 0d 32 a1 be 40 04 f7 3e
       -0.41366535 -0.05760642 -0.31483498 0.4824543
000090 a3 75 0a bf a1 82 9b 3d ef 3a 02 bf 53 3e 13 3e
       -0.5408575 0.07593275 -0.50871176 0.14379244
0000a0 a2 f7 15 3f e6 9e 89 3f 32 93 6a 3e 76 02 ac be
       0.5858098 1.0751617 0.22907713 -0.33595628
0000b0 78 a7 76 be 9a 20 f7 bd 89 cf b9 bd 82 d9 34 be
       -0.24087322 -0.12066765 -0.09072787 -0.17661098
0000c0 b5 23 83 be 8f a7 51 3f 18 a8 d1 be 15 7b 15 be
       -0.2561318 0.818963 -0.40948558 -0.14597733
0000d0 1b 2e ed be 6c bf 54 be e2 2c 99 be 3c 10 8f 3f
       -0.46324238 -0.20776147 -0.29917055 1.1176829
0000e0 18 88 4f 3f 44 a6 0e be 9c 6c 39 bd 52 54 0d bf
       0.8106704 -0.13930613 -0.045269594 -0.5520679
0000f0 84 8e 67 bd 2e e2 08 be 92 9f 9b 3d fe a1 d0 bd
       -0.056532398 -0.1336753 0.07598795 -0.101871476
