data/model_dataset_56000_p_conv2d_small_epoch_4.pth (torch, 648414 bytes, 25 tensors)

a1.weight f4 [16, 2, 3, 3]
000000 46 00 d0 be b5 54 87 bd 83 a2 37 be 78 a0 6e 3e
       -0.4062521 -0.066079535 -0.17933087 0.23303401
000010 fe 28 56 be 0b 8a 81 bd ae 4f 06 be cb 64 54 be
       -0.20914075 -0.06325158 -0.13116333 -0.20741574
000020 fa 95 9b bc 47 db 48 3e 51 5d 8e bd d0 ec 6a bc
       -0.018992413 0.19614898 -0.069513924 -0.014338687
000030 e2 15 84 3c 22 fe 8a 3c f2 53 5b ba 63 ee 2b bd
       0.016123716 0.016966883 -0.0008366696 -0.04197539
000040 83 d3 14 3c f5 65 57 bd 67 f4 79 3d 4e 4a 63 bf
       0.009083631 -0.05258747 0.061024096 -0.88785255
000050 e1 37 b7 be 87 44 ad 3d 8b 7a cd bf 66 e6 fd bf
       -0.3578482 0.08460336 -1.6053022 -1.9835937
000060 9f 91 15 3d 78 a9 5b 3d b1 30 34 3d da 27 af 3d
       0.03651583 0.053628415 0.04399175 0.08552523
000070 7f 38 05 be 95 b6 9f bc 61 bc 24 bd 63 11 8d 3d
       -0.13009833 -0.019496242 -0.040218715 0.06888082
000080 5b 81 75 be dc d1 1f 3d 3c 3e e4 3d fe 7b dd 3d
       -0.23975126 0.039018497 0.11144683 0.10814665
000090 9a f3 0d be a9 95 85 bb 86 09 d8 39 02 83 b0 3b
       -0.13862458 -0.004076679 0.00041205826 0.005386711
0000a0 df 1a 5f 3e 63 fb e3 37 2d 5d ac 3b a9 ce db bf
       0.21787594 2.717757e-05 0.005260131 -1.7172443
0000b0 9a 4e 56 3e 34 77 3b bd 15 a7 ec 3c 40 c1 90 bd
       0.20928422 -0.045767978 0.028888265 -0.070681095
0000c0 26 3a 79 bd 85 84 a7 3d 8b cb a9 3c 18 91 e3 3d
       -0.06084647 0.08179573 0.02072694 0.11111659
0000d0 b0 fe 5e bd b1 a5 04 bd 90 f9 64 bf cb 83 f0 3d
       -0.054442108 -0.03238458 -0.894433 0.117438875
0000e0 62 cf da 3d a5 e8 68 bd ef 6c e6 bb 62 33 12 bf
       0.106840864 -0.056862492 -0.007032029 -0.57109654
0000f0 ed 93 32 3e b5 38 92 bf f3 9c 04 bb 89 bf 9e bc
       0.17439242 -1.1423556 -0.002023515 -0.01937844
000100 29 9c cb bd 99 a8 a8 3d 6e 81 de 3c a2 0d d5 3d
       -0.099418946 0.082352825 0.027161326 0.10402991
000110 03 14 17 bd 0a 35 7a bd f5 fe 00 3e 54 ef df bd
       -0.03688432 -0.06108574 0.12597258 -0.1093432
000120 4e 82 0c bf 5f 3f 03 bf 5b f6 68 bd 83 34 91 bf
       -0.5488633 -0.5126857 -0.056875568 -1.134415
000130 8e b9 f3 3d 6b 96 c7 bf 57 81 07 bd 10 0c ce 3d
       0.11900626 -1.5592779 -0.033082332 0.100608945
000140 11 87 12 3c 75 f6 cf 3c 8b 75 19 bd 91 8c 4c 3d
       0.008943335 0.025386075 -0.037465613 0.049938742
000150 a0 76 4a 3d ab e0 13 3e b9 ed a2 3d 03 08 60 be
       0.049429536 0.14441173 0.07955498 -0.21878056
000160 c5 18 a9 3d d4 52 2d be 8a 98 2c 3d 5a 20 8f 3c
       0.082566775 -0.16926128 0.04213766 0.017471481
000170 21 7c 11 3e 80 c1 a1 bf 85 df 06 bd b9 d2 77 3b
       0.14207508 -1.2637177 -0.03292801 0.003781481
000180 b7 4e cd 3d a7 96 ef 3d 55 ac 88 3c 1c 9e 10 3e
       0.10024779 0.116986565 0.016683737 0.14122814
000190 bb 47 0d be b8 14 b0 3d 40 69 e5 bc 62 82 30 be
       -0.13796894 0.08597702 -0.028004289 -0.17237237
0001a0 19 0b 2f 3e 3f 21 15 be 4d de 5c bd 18 d7 fb 3d
       0.17094077 -0.14563464 -0.05392294 0.12296885
0001b0 dc 12 9a be 36 eb f1 be 18 84 3f bd ea 80 69 3d
       -0.30092514 -0.47249764 -0.046756834 0.057007708
0001c0 4e cd 20 bf 4a 19 c3 3d a0 cd 8e 3d 0a f1 60 bf
       -0.6281327 0.09526308 0.069728136 -0.87867796
0001d0 1d 91 e7 bc de 0c 25 be 69 e4 7a 3e c7 44 df bd
       -0.028267438 -0.1611819 0.24501194 -0.1090179
0001e0 c7 50 ee 3d 7c db c3 3d 6b fb c2 3d 07 c9 3b be
       0.11636501 0.09563348 0.095206104 -0.18338405
0001f0 d0 3b 25 be 11 0c ee 3c 23 a6 18 be d2 c2 34 be
       -0.16136098 0.029058488 -0.14907126 -0.17652443
000200 58 6d 0e bc 1f 96 3c bc 30 e4 fd bc b2 6f 31 be
       -0.008693062 -0.011510401 -0.030992597 -0.17327765
000210 e9 75 19 be 50 cc 14 bf a6 02 0b be c1 04 92 3d
       -0.14986385 -0.58124256 -0.13575229 0.07129813
000220 03 66 56 bb 48 db 0a bd 32 b5 5c bc 03 30 30 3d
       -0.0032714612 -0.03390053 -0.013470935 0.043014538
000230 a7 8f 08 bd f2 7a 4e bd 71 c6 b6 bd 94 79 de 3d
       -0.033340123 -0.05041022 -0.089245684 0.10863033
000240 4f eb ed 3d 11 9d d6 3d b7 24 42 3d a2 6d ee bf
       0.11617147 0.10479177 0.047398295 -1.8627207
000250 82 75 da ba 33 27 0a bf 7f b7 a5 bf 2f d1 85 bf
       -0.00166671 -0.53966063 -1.2946624 -1.0454463
000260 9a a9 59 3d 28 5f 0b 3e 78 2f 05 be 70 9e 05 3d
       0.05314026 0.13610518 -0.13006389 0.0326218
000270 2d 80 62 3e 47 b9 67 bc a6 53 17 3d 09 34 4e be
       0.22119208 -0.014143295 0.036945008 -0.20137037
000280 ca c6 91 bd a1 9e 5b 3c 5e 6c 1d bf 86 b3 4b 3d
       -0.07117994 0.013404519 -0.6149348 0.049731754
000290 3b 7d 12 bf d9 60 24 bf c0 06 75 3b 0a f7 27 bf
       -0.57222337 -0.6421028 0.0037388057 -0.65611327
0002a0 5e 27 2b bf e7 14 97 be 99 bc 81 bf f7 7a d5 bd
       -0.66856945 -0.29508135 -1.013568 -0.10423844
0002b0 bf 13 13 3e 1b 64 35 be dc 52 bb bd 7e 32 3c be
       0.14363001 -0.17713968 -0.091466635 -0.18378636
0002c0 fb 22 f3 bd b0 e1 b0 3d e5 77 6a 3e f9 09 15 3e
       -0.11871906 0.086367965 0.22897299 0.14554586
0002d0 60 98 ca 3d e2 9f de 3d e1 f9 c6 bf f2 df b1 3d
       0.098923445 0.10870339 -1.5545007 0.08685292
0002e0 09 84 8c bf 56 de 9d bf 8d 90 cd 3d 3b f9 20 be
       -1.0977794 -1.2333477 0.100373365 -0.15720074
0002f0 4c 7c e9 be 7a 6f 37 3e d2 1d 4f 3d f3 2d bc 3d
       -0.45602643 0.17913619 0.05056555 0.091884516
000300 83 48 0c be 92 19 54 bd 1f b4 b8 bc 68 b9 14 bd
       -0.13699536 -0.0517822 -0.022546826 -0.03630963
000310 b8 7c 35 3a 50 06 43 bd 2f 34 9f 3a 88 e4 65 3b
       0.00069231866 -0.047613442 0.0012146289 0.0035078842
000320 85 01 b1 bb ff 5a b0 3b d8 51 45 3e c7 a6 4a 3e
       -0.0054017925 0.0053819413 0.19269502 0.19790183
000330 8f 88 3c 3e 50 ac e6 3b 81 57 2a 3a 0c 41 0b bd
       0.18411468 0.007039584 0.00064980244 -0.03399758
000340 d8 19 c2 3d ba 3c f3 bd 88 a4 0a 3d 5b 75 92 3d
       0.094775856 -0.11876817 0.033848315 0.0715129
000350 2b 08 88 bd 0b 9b 23 bd ea 5f 67 bc 56 d9 a8 3d
       -0.06642183 -0.039942782 -0.014121989 0.082445785
000360 fb 3a fe 3d 7d 74 9b bd b8 0b 11 bd 16 44 57 3d
       0.124135934 -0.07590578 -0.035411566 0.052555166
000370 db 09 12 bd d2 3c 6b bc e9 fc c6 3d b6 99 98 bf
       -0.03565393 -0.014357762 0.097162075 -1.1921909
000380 aa 67 d1 3b ae 0a 45 3d ff a4 0b be 81 5a f4 3b
       0.0063905315 0.048105888 -0.1363716 0.007457078
000390 c1 3d 6e be b9 43 89 3d 24 2d 83 3d 4c 3a 83 3e
       -0.23265745 0.0670237 0.06405094 0.25630414
0003a0 a5 09 9b bd 2d fd ef bb d9 29 65 3c 41 b2 38 3c
       -0.07570199 -0.007323882 0.013987028 0.011272968
0003b0 d1 3d 50 3c 31 f1 96 3a 0b 04 3f 3e 77 52 44 3e
       0.012710051 0.0011515972 0.18653886 0.19172083
0003c0 83 87 8e bd 0c ad 81 bc 44 18 95 3d e3 1c 3d be
       -0.069594406 -0.015829585 0.07280019 -0.1846805
0003d0 81 62 ca 3d 0f 19 fa 3a c0 89 3d 3e 70 ea 19 be
       0.098820694 0.0019080954 0.18509579 -0.15030837
0003e0 3a 70 2f 3e 43 f4 95 bd c7 0d c9 3d da c6 e1 bd
       0.17132655 -0.0732198 0.09817081 -0.11024256
0003f0 4d 3d 44 bf 2c 67 b8 3d 62 67 e6 3d 95 d4 d5 3d
       -0.7665604 0.090040535 0.112501875 0.104409374

a1.bias f4 [16]
000000 41 f4 45 be 01 b6 61 3e 8c 8c 86 bf f6 d4 f8 be
       -0.19331457 0.22042085 -1.0511642 -0.48599976
000010 54 21 f8 3d c7 88 1d bf 5a 49 c4 3d fa 77 32 3f
       0.12115732 -0.6153683 0.09584303 0.6971432
000020 f6 d8 25 bd 67 06 d0 3e df 2a ec be df 62 72 bf
       -0.040490113 0.40629885 -0.46126458 -0.94682115
000030 f9 1b e8 bd ab 8d 5f be 10 e0 b9 be eb a5 b7 bf
       -0.1133346 -0.21831386 -0.3630376 -1.4347509

a2.weight f4 [16, 16, 3, 3]
000000 2e 4d 1d 3d a5 f5 aa 3d 92 55 99 3c 6b 20 1e bd
       0.038403682 0.08347634 0.01871756 -0.038605135
000010 66 ea 52 bc 20 9c e2 bd a7 30 2c 3c d9 79 15 3e
       -0.012873268 -0.11064935 0.0105096465 0.14597262
000020 5d ca c0 bc 40 01 b1 bc 80 01 3c 3d e1 a6 ce 3d
       -0.023533994 -0.021607041 0.045899868 0.100904234
000030 25 ce 4b 3e eb bc 96 3d eb 79 ba bd a4 a1 98 bd
       0.19902857 0.07360252 -0.09105285 -0.074527055
000040 17 8e 46 bd 83 11 5f bd a7 67 08 3c 5e 45 23 3c
       -0.04847535 -0.05446006 0.008325494 0.009965269
000050 1f 9a 86 3d d8 40 43 bc fc 78 0c bf 53 84 a2 3d
       0.06572365 -0.011917315 -0.5487211 0.07935395
000060 88 fe 66 bf a5 28 bb bf ef 64 1a bf 83 5c d6 bc
       -0.90232134 -1.4621779 -0.6031026 -0.02616716
000070 bb 3f 4c 3d 10 86 9f 3d 6e 85 25 bb 29 3c 69 bd
       0.049865466 0.07789242 -0.0025256532 -0.05694214
000080 09 25 36 bc 51 2c 80 3e 75 d4 4c be 60 48 ff bd
       -0.011117228 0.2503381 -0.20002921 -0.12464976
000090 ca 06 0d bd 05 d9 33 3e 0f 38 b3 3d b5 6c a8 3c
       -0.034430303 0.17563255 0.08750927 0.020559648
0000a0 46 56 ea 3d e6 20 5a bd 54 b8 fd 3c 8d 66 a4 bd
       0.114422366 -0.05325403 0.030971684 -0.080273725
0000b0 35 e2 6c 3c 19 0b bd 3c 5b 22 f6 bc d8 2c 82 bc
       0.014458229 0.02307658 -0.030045679 -0.015890524
0000c0 a6 cf 16 3e 40 9b 93 3d 3e f8 ac 3c e2 3f 64 3a
       0.14727649 0.07207346 0.021114465 0.0008707029
0000d0 88 04 34 be 1c 3b bc bd 36 82 9b 3b b6 81 8f bd
       -0.17579854 -0.09190962 0.004745747 -0.07007162
0000e0 cf 36 1e bd da 6a d6 3c 09 15 09 be ce f5 81 bd
       -0.03862649 0.026173998 -0.1338693 -0.06345712
0000f0 03 d3 10 bd 92 4c bb bd f7 1a 8c bb 4a 61 5d 3d
       -0.035357486 -0.09145464 -0.0042756754 0.05404786
000100 81 2e ec bb f3 be 9f be 68 8c c9 bc 3d 61 2f be
       -0.007207692 -0.3120037 -0.024603084 -0.17126937
000110 92 39 65 3d 40 3a 08 3d 0b 34 84 be 26 b4 8e be
       0.055963106 0.033258677 -0.25820956 -0.27871817
000120 0f 6e e3 3c e8 6a ac 3d f2 7e 40 be e2 3d 25 3d
       0.027762441 0.08418828 -0.18798426 0.04034222
000130 41 40 b1 bd ff 8a 7e be a3 9f b2 3d 83 37 98 be
       -0.086548336 -0.2485771 0.087218545 -0.29729852
000140 26 67 a0 3d 86 cf b7 3c f2 d7 e8 3c 05 52 91 3d
       0.07832174 0.022437822 0.028423283 0.07095722
000150 04 6b 42 3d 8b 86 e0 be c4 86 30 be 2c 24 9c 3d
       0.04746534 -0.43852648 -0.17238909 0.07624087
000160 a1 1d dd bd 7d 27 f5 bd 72 c5 ba 3c 9a 6f be bd
       -0.10796667 -0.119704224 0.022799227 -0.0929863
000170 f9 ac 00 3e 12 af 60 bd 05 2a 7c be 48 e0 db bc
       0.12565984 -0.05485446 -0.24625404 -0.026840344
000180 2a 36 0d be 05 53 85 be 10 5f 63 be 14 ce be bc
       -0.13790193 -0.260399 -0.22204232 -0.023291625
000190 ec a6 8b bc 04 91 b0 3d c0 fd 8d 3e ba 2f 28 bf
       -0.017047368 0.086214095 0.27732658 -0.65697825
0001a0 d1 01 c1 bc 4d 93 d3 bf 48 79 b3 bd 4b f6 88 be
       -0.023560436 -1.6529328 -0.08763367 -0.26750407
0001b0 97 7e 95 bd 73 4f 60 bd 68 19 1e 3d 1f f7 37 3b
       -0.07299536 -0.05476327 0.038598448 0.002807088
0001c0 11 51 ae 3b fd 7f 52 bd 4a e9 60 bd 0d 7f ed 3c
       0.0053197225 -0.05139159 -0.05490998 0.028991247
0001d0 8a bb e6 3d 23 6f 4f bd 0b 17 99 3d ff 67 bd 3c
       0.11266239 -0.050643098 0.07475098 0.023120878
0001e0 1a 3b 8b 3d 70 cb 89 3e ef 54 7d bd a0 a7 eb 3e
       0.06798382 0.26913023 -0.061848577 0.46026325
0001f0 89 c9 a3 3e 39 7e 84 3e a2 90 4d 3d 6f 7a 22 3d
       0.31989697 0.2587755 0.05018676 0.039667543
000200 00 0a a3 3c 4c 97 a4 3d dd 09 96 b8 d1 28 e8 bd
       0.01990223 0.0803667 -7.1543946e-05 -0.1133591
000210 cf 6e 5d be d1 5e d3 bc 9b 0b 4d 3e 88 57 26 bf
       -0.21624301 -0.025802048 0.20023958 -0.6497731
000220 3d 31 dd be f6 41 10 3d c4 68 2d bf 23 b2 87 be
       -0.43201628 0.035219155 -0.67737985 -0.26503095
000230 a9 29 01 be 1a 4f ec be 93 bf 1d bd cd ab 8a be
       -0.12613548 -0.461541 -0.038512778 -0.270842
000240 5e 2e 81 be 0b 95 19 be c5 87 68 3e 7a b4 22 3e
       -0.25230688 -0.14998262 0.22708042 0.15889159
000250 a8 50 22 be 14 76 03 be ac ce 1f be 23 38 58 bf
       -0.1585108 -0.12838012 -0.15606183 -0.8446066
000260 5d 12 0f bf 2e 56 58 3d 96 9b ee 3d 72 48 e4 3d
       -0.55887395 0.052816562 0.116507694 0.1114663
000270 85 27 91 bc 14 b2 c9 3c 46 5e c8 3c ba 8c 77 bf
       -0.01771904 0.024621047 0.024459016 -0.96699107
000280 eb 61 af be 94 5b aa 3e ea b9 c7 bf 9c 83 95 bd
       -0.34254393 0.33272994 -1.5603611 -0.07300493
000290 07 35 89 3e 46 c4 43 be 29 f8 a3 bf c2 87 87 3d
       0.2679827 -0.19117841 -1.2810107 0.066176906
0002a0 74 ec 9c be 5c 6f 1e be 44 2c 5c be d5 1c 56 3e
       -0.3064915 -0.15472168 -0.21501261 0.20909436
0002b0 3a ab 25 be 7b 26 37 bd cd 49 d7 3e 40 83 84 bf
       -0.16178599 -0.044714432 0.42048493 -1.0352554
0002c0 47 7b e2 3d b5 5d 83 bf a1 fe 4e be d3 45 bb 3d
       0.110586695 -1.0262972 -0.2021432 0.09144177
0002d0 4e a3 a9 3d 96 c3 23 3e 93 db 5c be 9e 54 b9 3d
       0.08283101 0.15992579 -0.21568136 0.090493426
0002e0 aa 81 34 bd 88 bf ea 3d ef 6f 42 be e1 c7 14 3e
       -0.04406897 0.11462313 -0.18988012 0.14529373
0002f0 f7 0a 4a be ce 9f 15 bd e2 af b2 3e aa 6a e9 3d
       -0.19730745 -0.036529355 0.34899813 0.11397298
000300 02 41 4f bd 5f a8 95 bf ee 32 d3 3d bc 69 85 3e
       -0.050599106 -1.1692008 0.103124484 0.2605723
000310 55 1f e2 3d 93 fa 6a bf df 07 7d 3c 4a bc 6e 3e
       0.11041132 -0.91788596 0.015443771 0.23314014
000320 53 dd 76 3c ca eb 95 be 2f 0e 0d bf 26 46 37 3c
       0.015067416 -0.29281455 -0.5509977 0.011186158
000330 0b 78 e4 be 92 13 14 bf 7b 3e 81 bc 87 e9 8a 3e
       -0.44622836 -0.5784236 -0.015776863 0.27131292
000340 fe 2b c5 3e 42 7f 65 b8 fb fa 00 3d 38 2d 14 bf
       0.38510126 -5.4716373e-05 0.031489354 -0.578815
000350 55 2d 58 3d a5 ab 92 bd a3 90 76 3d 05 9b b5 bd
       0.052777607 -0.07161645 0.06019653 -0.08867458
000360 7b 69 64 3e 14 18 b1 3d 3d 67 67 3d c4 39 1d 3d
       0.22305863 0.08647171 0.05649494 0.038385168
000370 79 81 a2 be d9 84 17 bd 7d 33 23 bf b4 39 8b 3d
       -0.31739405 -0.036991928 -0.6375044 0.067981154
000380 26 44 84 bf e3 64 e5 bd ac 3d c2 bc 58 2f 52 3d
       -1.0333297 -0.11200883 -0.023711048 0.05131468
000390 05 ef 30 bf 47 69 f7 bc 87 49 a3 be 99 88 30 bf
       -0.69114715 -0.030201567 -0.31892034 -0.6895843
0003a0 ec e1 70 3c e9 74 65 bf 9c 38 04 3e 63 a3 89 bc
       0.0147023015 -0.89631516 0.1291222 -0.016801542
0003b0 a2 85 e1 3a cf 1b c8 3d 96 1e 2a be 01 0c e0 be
       0.0017205963 0.09770929 -0.1661323 -0.43759158
0003c0 22 2f 0a bf f6 ce 63 bf e2 3b 75 bd ca 52 27 3e
       -0.5397817 -0.8898767 -0.05987156 0.16340175
0003d0 dd 2e 48 bd 18 11 9a bc 41 27 38 3d 46 91 1f 3e
       -0.048872817 -0.018806979 0.04495931 0.15582761
0003e0 1f 81 ce bd 82 e8 b6 bd 24 da 42 bc 28 c0 41 3e
       -0.10083222 -0.08931066 -0.011892829 0.18920958
0003f0 68 37 09 ba 23 37 03 3b f6 7e b8 3d 90 cf 8f 3e
       -0.00052343914 0.0020021878 0.09008591 0.28088045

a2.bias f4 [16]
000000 45 63 20 3f 1c 41 04 3f 74 05 ae be 6b 7d c0 bd
       0.62651473 0.5166185 -0.33988535 -0.093989216
000010 42 0f 9d 3e d2 9f 19 bf 6d 84 0e bf 32 aa f6 3e
       0.30675703 -0.6000949 -0.55670816 0.48176724
000020 55 a7 1f bf 7d 43 cd be 29 1a fd bd a8 be 37 3e
       -0.62364703 -0.40090552 -0.12358505 0.17943823
000030 1b 39 81 be 2b 2a 85 be a0 93 da be 4b d0 d6 be
       -0.2523888 -0.26008734 -0.42690754 -0.4195579

a3.weight f4 [32, 16, 3, 3]
000000 d8 c4 1e 3e 6c 6c 4b 3d 78 07 13 3e 25 e8 83 3e
       0.15504777 0.049663946 0.14358318 0.2576305
000010 b3 06 b8 bd 1e d1 01 bf 38 1f 59 3d 40 9a 91 3e
       -0.08985653 -0.5070971 0.05300829 0.28437996
000020 b9 f9 4e be ea a6 f6 3e 6d ea 01 3f 33 fe 0a 3b
       -0.20212449 0.4817422 0.5074833 0.0021208643
000030 8e 63 04 3e 6e fc 0a 3d f7 a4 7c bd d2 35 15 3e
       0.12928602 0.033932142 -0.06168076 0.14571312
000040 05 41 cd 3d 22 b3 d8 3e 22 a4 73 3d 08 d2 99 3e
       0.10022167 0.42324167 0.0594827 0.30043054
000050 18 5c a9 3e 3a a2 b5 3e b9 3f ba 3e e5 ac 8f 3c
       0.33078074 0.35475332 0.36376742 0.017538497
000060 a8 79 59 be f2 b7 bb 3e f5 ce 16 3e 7c b0 23 3f
       -0.21237814 0.36663777 0.14727385 0.6394117
000070 96 59 0d be 29 b6 4e be 47 f3 f4 3d 86 a5 27 3e
       -0.13803706 -0.20186676 0.11960464 0.16371736
000080 4d ad 5f bd 61 61 56 be 42 cb a7 be 84 3a 21 3d
       -0.054608632 -0.20935585 -0.3277226 0.039362445
000090 25 f0 12 3e 08 c1 3f 3e 4c cc 04 3e 9f 8f 97 3e
       0.1434942 0.1872598 0.12968558 0.29601762
0000a0 aa e8 93 3f e9 59 b2 3d b2 91 7a 3e d2 2a 24 be
       1.1555378 0.08708555 0.24469641 -0.1603196
0000b0 3d 1a e1 3d ef 2e 25 bf da 6c 1e be 52 ce ab 3d
       0.10991333 -0.6452474 -0.15471211 0.08388962
0000c0 bc ae 07 be 78 d7 0d 3e fd 29 3c 3e e2 0f 23 be
       -0.1325025 0.13851726 0.18375392 -0.15924028
0000d0 72 29 82 bd e8 a5 da 3d 3f c8 93 be 28 02 29 bf
       -0.06355561 0.10676175 -0.28863713 -0.66018915
0000e0 82 41 43 3d 5d 7d c3 be d5 a0 b9 3e 71 f7 f0 3d
       0.047669895 -0.38181582 0.36255518 0.11765946
0000f0 64 78 1d be 2d 10 19 be d7 b2 9f 3e 68 fa 92 be
       -0.15377957 -0.14947577 0.3119113 -0.2870667
000100 9e 0d 50 be 87 87 9d bd 1f 20 8d 3e b6 6d 7f 3e
       -0.20317695 -0.076918654 0.2756357 0.24944195
000110 f8 37 e3 3d 5d 73 11 3e b0 9a 14 be 4d 68 0d 3e
       0.110946596 0.14204164 -0.14512134 0.13809319
000120 ea 5f 46 be e9 25 bb bd d4 cb 2e 3e fa 2b ae be
       -0.19372526 -0.0913809 0.17069942 -0.34017926
000130 94 66 d0 bd bd d3 25 3d 79 61 95 bd bf 4c 4e bd
       -0.10175815 0.040485132 -0.07293982 -0.05036616
000140 bd 54 0a 3d bc bc ab bf d5 b4 b6 bd cc e7 92 3e
       0.03377222 -1.3416972 -0.0892121 0.28692472
000150 f0 d0 9d 3e 77 ae f3 3d 28 cd 0e 3e d0 d6 69 3e
       0.3082347 0.11898511 0.13945448 0.2283585
000160 c3 76 5f 3e b7 27 1b 3e 16 b4 fc bc 27 42 5b 3d
       0.21822648 0.15151869 -0.03084759 0.053529885
000170 d1 d6 b7 bc 9f 24 dd bd ce bf bb bd 0a e9 bc 3c
       -0.0224413 -0.107980005 -0.09167443 0.02306034
000180 0f ce 71 bc 30 ca 5a 3c 76 de 88 3d 1b 0c 9b be
       -0.014758601 0.013353869 0.06683056 -0.30282673
000190 b2 92 8e bb 60 f5 1a be 04 2d 31 3e 33 60 24 3f
       -0.0043509835 -0.15132666 0.17302328 0.6420929
0001a0 71 d5 35 be 77 f8 ad 3e d7 c9 32 3e 2f 69 c6 3d
       -0.17757203 0.33978626 0.17459808 0.09688031
0001b0 c6 f9 cb be 76 a0 18 3d e8 70 92 3e 63 2c 8d be
       -0.39839 0.037262402 0.28601766 -0.27572927
0001c0 bb 35 87 3d aa af 4f 3e 0d 2f 5c be da b2 ae bd
       0.06602045 0.20281854 -0.21502323 -0.08530207
0001d0 8e a5 5a bc 38 34 de be 19 f2 d9 be 1c f6 38 3d
       -0.013345135 -0.43399215 -0.42567518 0.045156583
0001e0 cb 24 a0 3d 82 dc a8 be 45 00 56 be 05 6a 27 3e
       0.07819518 -0.32980734 -0.2089854 0.16349037
0001f0 5e 4f 83 3e 50 54 28 be 94 de 13 be 07 48 b9 bd
       0.2564649 -0.16438413 -0.14440376 -0.09046941
000200 1c 70 a0 3d 01 ca 13 bf 1f de 3f be 9c ec 94 3e
       0.07833883 -0.5773011 -0.18737076 0.2908677
000210 a4 54 55 be 61 a5 24 be 38 a4 a5 3e 60 27 05 bf
       -0.20833069 -0.16078712 0.3235185 -0.52013206
000220 67 8e a7 3d ab 62 92 3d ec 29 16 be 2c c7 85 3e
       0.08181458 0.07147726 -0.1466443 0.2612852
000230 5c a3 3b 3d 69 8d 23 3e 01 f7 9c bc 33 b8 8c 3e
       0.04581009 0.15971912 -0.01916075 0.27484283
000240 1a 91 e0 3e 1a 8f 13 3f d7 7f 07 3e c7 0f 07 3f
       0.43860704 0.5764023 0.13232361 0.5275845
000250 fd f7 1c 3a d2 44 4c be e3 f0 7e 3e 3e 6e 70 be
       0.0005987881 -0.19948128 0.24896578 -0.23479554
000260 e9 bc 3a bf 0a 9b 2d 3e 8d 37 17 3d 82 5c 33 be
       -0.72944504 0.16953674 0.03691821 -0.17515758
000270 15 1d 6c 3e a8 64 6d be b7 7f e0 be 59 de da be
       0.23057969 -0.23182929 -0.4384744 -0.42747763
000280 74 fe 58 3e e8 33 35 3e 94 20 ee be 84 fa 8f bc
       0.21190816 0.17695582 -0.4650923 -0.01757551
000290 78 a9 df 3e 87 a0 05 bf d7 ca 3c bd 0b 0b 3d bd
       0.43683982 -0.5219807 -0.04609188 -0.04615311
0002a0 5c 7b f8 3e 2a d5 fe 3d b7 f0 0c 3e f2 15 9f be
       0.48531616 0.124430016 0.137637 -0.3107143
0002b0 37 de 9f 3d ac a9 02 3d 94 b4 d6 bd 09 aa fd bd
       0.07806056 0.031900093 -0.10483661 -0.12385947
0002c0 92 20 6c be bc 2a 0d 3e 63 17 3f be 78 07 00 bf
       -0.230593 0.13785833 -0.18661265 -0.50011396
0002d0 fe 88 0b 3d 31 80 42 be 30 2d 3d 3d 1c b3 f9 3e
       0.034066193 -0.18994214 0.046185672 0.48769462
0002e0 53 66 47 be 05 60 0f be b0 60 18 be 7c 70 1d 3e
       -0.19472627 -0.14001472 -0.14880633 0.1537494
0002f0 bc 20 9e be 1f 23 d5 be 8b 22 d1 be 5e 57 d9 bc
       -0.3088435 -0.41628358 -0.40846667 -0.026530918
000300 53 a0 16 3e a2 42 10 bf 94 ec 30 3e 7d fd 45 be
       0.14709596 -0.56351674 0.17277747 -0.1933498
000310 9a 19 04 3e fd 59 11 3e 58 15 a7 be fc 49 76 be
       0.12900391 0.14194484 -0.3263347 -0.2405166
000320 5f 9d 0b 3d 3f f2 58 bd e2 49 ee be 52 7b f7 bd
       0.034085628 -0.0529654 -0.46540743 -0.12084068
000330 d9 f9 c5 3c 23 f2 88 be 90 56 15 bd a0 cb 2a be
       0.024166988 -0.26747236 -0.036459506 -0.1667924
000340 e2 18 9b be 3f 9a db be 66 c7 0a bd a1 40 78 bd
       -0.30292422 -0.42891118 -0.033881567 -0.06060851
000350 68 6e 4b bf 7d 44 48 bd cc fa 97 3e b0 a9 8e bd
       -0.7946534 -0.04889344 0.2968353 -0.06965959
000360 98 54 23 be cb e2 08 bd 4f db 0a bd 13 3f 83 be
       -0.15950239 -0.03341941 -0.033900555 -0.2563406
000370 51 6c 26 be 2a 69 04 3e 1f 6e 98 be fc 16 80 bd
       -0.16252257 0.12930742 -0.29771516 -0.06254384
000380 7a cd a2 bb e9 bd b2 bd f5 df 94 bd d2 54 f5 3d
       -0.0049683424 -0.08727629 -0.07269279 0.11979069
000390 f1 06 76 bd 90 e8 04 be 02 f8 22 be 1d 7c bc 3e
       -0.060065214 -0.1297934 -0.1591492 0.3681344
0003a0 a2 e0 8d 3e 86 51 5a 3e 9e 46 86 bd dd 2d a9 bc
       0.27710444 0.21320161 -0.06556438 -0.020651752
0003b0 15 c2 a2 3c 0d 8a a2 bc 28 45 87 bd 66 9b bf 3d
       0.019867936 -0.019841218 -0.066049874 0.09355812
0003c0 dd 73 6a bc d4 a8 c9 bc 07 07 2f 3d 5f ca 12 bf
       -0.0143098505 -0.024616636 0.04273131 -0.57340044
0003d0 57 9d d7 be dd 83 33 be 80 79 52 bd d2 cb 87 be
       -0.42112228 -0.1753077 -0.051385403 -0.2652269
0003e0 9c 0b e3 3d 96 b0 bf 3e 16 1e f3 bd 53 d9 28 be
       0.11086199 0.37439412 -0.11870973 -0.16489153
0003f0 52 d2 ed be 60 04 ae 3e cb cb 90 3e 92 4a ac 3e
       -0.46449524 0.33987713 0.28280482 0.33650643

a3.bias f4 [32]
000000 8c 89 cc 3e 2c fe 0b bc 29 45 97 be 6d 6e fb bd
       0.3994869 -0.008544486 -0.29544953 -0.122769214
000010 b2 1d 84 bd 2a 08 9e be b5 80 11 3d ef ec 32 3f
       -0.064509764 -0.30865604 0.035523135 0.6989278
000020 19 63 b0 bd f2 e4 03 bd fb 36 a4 be 3e 3f d6 be
       -0.086126514 -0.03220076 -0.32073197 -0.41845125
000030 18 4c c2 3e 02 45 2c 3f ae 26 68 be e4 8e bb 3d
       0.3794868 0.672928 -0.22671005 0.091581136
000040 be ca 20 3f 60 c7 83 bd a0 20 c4 be 1c 5c 23 be
       0.6280936 -0.06434512 -0.3830614 -0.15953106
000050 c5 b3 ff bd 5b a3 38 bc 1f b6 40 be 49 e4 34 3f
       -0.1248546 -0.011269416 -0.18819474 0.70660836
000060 43 b2 9d 3e d4 40 a6 be 75 4c 8c be 1e 86 8a be
       0.30800065 -0.32471335 -0.27402082 -0.27055448
000070 9f eb c8 be 9e fb 11 bf 04 62 de 3e aa 0e b1 bd
       -0.39242265 -0.5702456 0.43434155 -0.08645375

b1.weight f4 [32, 32, 3, 3]
000000 46 b7 b1 3c 0a 03 3f bc 88 32 82 bb 12 b0 16 be
       0.021693837 -0.011658439 -0.003973309 -0.14715603
000010 09 e0 fd bc ef 29 5f 3d 5f d0 ba bd c9 59 32 3d
       -0.030990617 0.05448335 -0.09121775 0.043542657
000020 f1 4f 48 3d 84 04 e4 bd 71 63 65 3d f7 fd 2e bc
       0.048904363 -0.11133674 0.056003038 -0.010680667
000030 b0 5e 73 bd f1 74 c1 bd 61 34 8e 39 a1 20 ed bd
       -0.059416473 -0.09446133 0.00027123376 -0.11578489
000040 c1 ec cf bd e2 91 8b 3d f6 10 56 3c 3b 02 8e bd
       -0.10152579 0.06814934 0.013065567 -0.06934019
000050 34 9f 5a bd 1c bf be bd d7 17 c5 bc 1b ce 33 bc
       -0.053374484 -0.09313795 -0.02405922 -0.010974432
000060 e6 eb f0 bd e6 72 62 bc 46 94 54 bd 51 b6 31 bc
       -0.11763744 -0.013821339 -0.051899217 -0.01084669
000070 cb 1e 99 3b a1 1f 4c 3b 9f af 80 3d 68 8c 37 bd
       0.0046728603 0.0031146782 0.06283497 -0.044811636
000080 00 eb b9 3c 06 df 28 bc a7 a0 d6 bc f3 4f 04 bd
       0.022695065 -0.010307079 -0.026199652 -0.032302808
000090 05 d6 1a 3d 5d 30 65 3d fb b7 1d bd 41 36 2f 3d
       0.03780176 0.055954326 -0.038505536 0.04277635
0000a0 97 c3 83 bc d9 57 d0 3c a2 38 98 ba e8 ae f0 3c
       -0.016084475 0.025432514 -0.0011613558 0.029380277
0000b0 72 d2 12 bd a2 d5 63 bd 24 81 88 bd 4a a5 a5 bd
       -0.035845228 -0.055623658 -0.066652566 -0.08088167
0000c0 f9 00 b9 bc 15 dc cc bc 08 10 4c 3d 7e f2 a0 3d
       -0.022583472 -0.025007287 0.049819976 0.07858752
0000d0 c3 05 0b 3c 4d f4 12 bc 61 a5 82 bc 2c 94 1c bd
       0.00848526 -0.008969379 -0.015948 -0.038227245
0000e0 e4 48 00 bd ab 93 5b bd be 1e 2c bd 07 9d 49 bd
       -0.031319514 -0.053607624 -0.042021506 -0.04922202
0000f0 9d 05 81 3a b7 b4 39 bc 3d f4 de bc 0b 6c 65 3d
       0.0009843592 -0.01133459 -0.027216071 0.05601124
000100 7e dc 93 3b 6e d9 1b 3d 39 53 d3 bc 55 57 dd bd
       0.0045123687 0.038049154 -0.02579652 -0.10807673
000110 98 14 97 3d 67 88 a6 bd 3b ac 78 bb dd 2e d0 bd
       0.07376975 -0.081314854 -0.0037944454 -0.101651885
000120 3c 68 6a bd c2 17 25 3d 23 65 1e bd f1 16 4f bd
       -0.057228312 0.04030586 -0.03867067 -0.050558988
000130 65 8b 9c bd e7 76 2c bd 5b 25 64 bc 23 24 1d 3d
       -0.07643775 -0.04210558 -0.013924922 0.03836454
000140 a3 a1 75 3d 84 e9 e3 bd 89 81 b8 bc 1f 8e 6f bc
       0.059968602 -0.11128524 -0.022522705 -0.014621287
000150 ff 85 95 bc fb 99 2a bd 97 6b 06 bd bc 09 18 be
       -0.01825237 -0.041650753 -0.03281745 -0.14847463
000160 92 9b 7c bc 90 ac 9e bd a0 69 bd bd c0 f1 ad bd
       -0.01541795 -0.077477574 -0.09248662 -0.08493376
000170 0d 03 1d bd 02 b8 46 bd 91 be 00 be a5 f3 dd bb
       -0.038332988 -0.048515327 -0.12572695 -0.0067734295
000180 20 e9 2c bd b1 45 4d be 3e 62 97 bd cf 99 65 3d
       -0.042214513 -0.20046116 -0.07391785 0.056054886
000190 d2 6d f7 3c 20 56 46 bd 5d 5e 5a bd 5e d7 0c bb
       0.030203734 -0.04842198 -0.053312648 -0.0021490674
0001a0 3d 51 0a 3d ef 1a 69 bd 9b 6f b0 bd 58 d9 6b bd
       0.03376888 -0.05691045 -0.08615037 -0.057580322
0001b0 83 8e ed 3c b2 ce a6 bc d4 6d 0c 3d 66 4c 2e bd
       0.028998619 -0.020362232 0.034284428 -0.042553328
0001c0 4c 59 f0 bd 08 d7 a7 3c 29 d1 b1 bd ec a8 e8 bd
       -0.11735782 0.020488277 -0.08682472 -0.11360344
0001d0 26 4a d0 bc 87 fc 3e bd 01 fd 96 bb 22 1d 00 bb
       -0.025425982 -0.046627548 -0.004607797 -0.0019548615
0001e0 94 09 ab bd 2a fa ca bd 9d 8e a4 bd 42 e3 85 bc
       -0.08351436 -0.09910996 -0.08035014 -0.016343717
0001f0 23 49 9b 3c ab 50 24 bd 0f b5 6a ba bb 1c 80 bd
       0.018955773 -0.040115993 -0.00089533714 -0.0625548
000200 b6 e8 14 bd ee 4c 05 3d d2 37 d3 bd 86 34 29 3c
       -0.036354743 0.03254407 -0.10313381 0.010327464
000210 7c d9 38 bc 4b 47 64 3c bd c3 bd bc 08 b1 85 bd
       -0.011282321 0.013933013 -0.023164624 -0.06527907
000220 7d 8a e6 bd 63 36 57 bd 7d e7 aa bd 29 0c 57 bd
       -0.11256883 -0.0525421 -0.08344934 -0.05250183
000230 90 36 1e 3c 58 41 0e bd a8 a9 37 bd 0d ea 82 bd
       0.009656563 -0.034730285 -0.04483953 -0.06392298
000240 18 f6 8b bd 22 03 c5 bc 06 8f fa 3b 98 de af ba
       -0.06834048 -0.024049345 0.0076464443 -0.0013417779
000250 80 52 0a bd aa e3 72 bd a8 f5 24 bd 83 0e 94 bd
       -0.033770084 -0.05929915 -0.04027334 -0.072293304
000260 d3 22 37 bd 21 5b 18 bd bc 09 5b 3d 3f af d0 bb
       -0.044710945 -0.037196282 0.05347608 -0.006368547
000270 5c 0f 8a bb e9 97 9d bd 37 65 9c ba cc 8d 0f 3c
       -0.0042132568 -0.0769499 -0.001193202 0.008761834
000280 ab 94 cc 3d 4b 5c 4a 3d 41 88 99 bd a9 2f fa bc
       0.09989294 0.049404424 -0.074966915 -0.030540304
000290 b9 8e 4c bd c1 99 2d bd 04 1e c5 bd 38 bc 05 bc
       -0.0499408 -0.04238296 -0.09624866 -0.008162551
0002a0 f8 49 ef bc 42 90 09 be 19 85 63 bd 3a 2a 87 bd
       -0.029210076 -0.13433936 -0.055546854 -0.06599851
0002b0 43 0d 15 bd c6 7d 7e bd 83 d9 44 bd e9 91 22 bd
       -0.0363896 -0.062131666 -0.048058998 -0.039689932
0002c0 2b 05 92 ba 25 8a 92 bd c5 b1 3c 3a b0 5f 01 bc
       -0.0011140456 -0.07155255 0.00071981206 -0.007896349
0002d0 c6 a3 33 bd d7 28 77 bc 4e 89 3c bd ab a6 f5 3c
       -0.04385736 -0.015085421 -0.04602938 0.0299867
0002e0 c3 6f f6 bc 33 67 bf 3b ca f3 dc ba aa 47 0d 3d
       -0.030082589 0.0058411597 -0.0016857323 0.034492172
0002f0 8e c9 38 3c a7 1f ea bd 6c 41 8f bd 14 5c cf bd
       0.011278523 -0.114318185 -0.069949 -0.101249844
000300 c0 74 de bd 7f f8 b8 bd 1b 35 18 bd 6a a6 c5 bc
       -0.10862112 -0.09031772 -0.03716002 -0.024127204
000310 aa 72 c8 bd 58 b7 4f bd d8 7d bd bc 70 26 96 3d
       -0.097874954 -0.05071196 -0.023131296 0.0733155
000320 53 98 7f bb 8a d8 d0 bc 2e e1 53 bd 09 e6 46 3b
       -0.0039000704 -0.025493879 -0.05172842 0.0030349514
000330 c5 07 4b bd 55 7f 9e bd 82 c0 10 3d 08 d4 40 bd
       -0.049567956 -0.077391304 0.03533984 -0.04707721
000340 ab e6 e9 bd 59 51 8d bd 8c 17 2c be 0e 07 27 be
       -0.114209495 -0.069002815 -0.16805857 -0.16311285
000350 f0 16 66 bd 09 21 45 bd 2e fa 29 be a7 a6 04 3d
       -0.05617422 -0.048127208 -0.16599342 0.032385495
000360 0a 86 6a bd a4 0a 75 bd e2 49 22 bd f9 ec 13 3d
       -0.057256736 -0.0598246 -0.03962124 0.036114667
000370 23 ce e6 bd 04 86 77 3d 06 00 04 bd d3 36 fb bc
       -0.11269786 0.06043054 -0.032226585 -0.03066579
000380 f3 a1 e9 3a b4 59 33 bd 8e 95 46 bd ea a8 20 bd
       0.0017824754 -0.04378672 -0.04848247 -0.03922359
000390 b6 69 6e bc d2 ed 95 bd 44 36 37 bc e5 6b 04 3c
       -0.014551571 -0.07320751 -0.0111823715 0.008082365
0003a0 70 96 39 bd 14 6b e9 bd 35 60 2a 39 f3 00 00 3d
       -0.045309484 -0.11397377 0.00016248303 0.031250905
0003b0 e7 a7 70 3d f5 6d ae bc 56 02 54 bd 37 94 38 bd
       0.058753874 -0.021292666 -0.05176004 -0.045063224
0003c0 ca d9 4c be cc 22 99 bd e3 bb 96 bd cc c8 27 bd
       -0.20004955 -0.0747734 -0.07360055 -0.04096298
0003d0 02 8f e2 bc 05 3d f9 3b ee f4 d3 bd ee f5 35 be
       -0.027656082 0.007606151 -0.10349451 -0.17769596
0003e0 57 53 da bc d2 d6 0a bc 0f fe d7 bd c3 1a bc bd
       -0.026651068 -0.008474069 -0.10546505 -0.09184792
0003f0 a3 ba d2 bd ab 60 c8 bd cc 05 99 bd 50 5e 5f bc
       -0.102895044 -0.09784063 -0.07471809 -0.013633326

b1.bias f4 [32]
000000 78 72 81 be ed 5a 90 bd 62 e8 38 bd b6 1d f3 bd
       -0.25282645 -0.07048593 -0.045143493 -0.11870901
000010 9e 34 e2 bd af 09 5d be 04 88 e0 bd 05 9a f2 bd
       -0.11045192 -0.21585725 -0.10963443 -0.11845783
000020 67 7f 71 be 2c 0e c5 be 1f ea b7 bd 53 05 90 bd
       -0.23583756 -0.38487375 -0.08980202 -0.070322655
000030 7c fa 0b 3d fa 9c a4 be 27 f3 18 be ee 89 07 be
       0.034174427 -0.32151014 -0.14936505 -0.1323621
000040 47 f3 92 be fe 4f 37 be 65 0b 82 be 28 08 90 be
       -0.2870123 -0.17901608 -0.25399318 -0.28131223
000050 ab d5 d2 3e 2a 77 85 be bd 3a f1 bd 93 32 0b 3f
       0.4117864 -0.26067477 -0.117787816 0.54374045
000060 58 65 14 be c6 09 3f 3d 3e 49 41 be ab ec 38 be
       -0.14491785 0.04664018 -0.18875596 -0.18059032
000070 a1 22 03 be 48 83 fa bd 9e 9a 8a be b4 5e 65 be
       -0.12806179 -0.12232071 -0.2707109 -0.22399408

b2.weight f4 [32, 32, 3, 3]
000000 99 e3 8c bc 8a 36 31 3c 30 7e 45 3d 51 cc fe 3c
       -0.01719837 0.010816226 0.048216045 0.031103285
000010 2f 57 e2 bd 6a cd 5e bd f8 2a 8f bd 80 61 b4 3c
       -0.11051785 -0.054395117 -0.069906175 0.022019148
000020 01 76 42 3c aa 59 19 bf f3 43 59 3e 83 f8 23 be
       0.011868955 -0.5990244 0.21217327 -0.16012768
000030 ca b0 1f bf a2 a3 04 bf 7b 22 80 be 10 d4 89 be
       -0.62379134 -0.51812184 -0.25026307 -0.26919603
000040 ac da 84 be 0c de bc bd b1 fa e6 bc ea b0 46 3b
       -0.25948083 -0.092220396 -0.02819571 0.0030317851
000050 b2 aa 09 3d d2 60 cd 3c d7 36 9a bb 92 32 9f bd
       0.033610053 0.025070582 -0.0047062445 -0.077733174
000060 c8 b6 7e 3c 24 4f b5 bb 75 cf 40 bd e9 46 df 3d
       0.015546508 -0.005533116 -0.047072846 0.10902197
000070 1f 27 b4 bd e9 15 cc be b0 ec fd bd a0 81 13 3f
       -0.08796524 -0.39860466 -0.1239866 0.5761967
000080 72 cc 97 be 91 d3 db bd 98 56 c6 be 99 47 79 be
       -0.29648167 -0.107337125 -0.3873794 -0.24343719
000090 a5 43 e2 bb d1 1a b1 3b d2 da 69 3d f9 20 c8 3c
       -0.0069050365 0.005404808 0.05709345 0.024429785
0000a0 0a ae 8a bd 4f 6b 48 3c cf 86 39 bb 0c 21 91 bc
       -0.067714766 0.012232616 -0.0028309112 -0.017715953
0000b0 db 99 5b bd 71 5b 13 3e ad fd 9b 3e e7 33 4e 3e
       -0.053613525 0.14390351 0.30466977 0.20136987
0000c0 83 bb 39 bf 77 50 76 3d 14 d7 9f 3d 04 cc 0d be
       -0.72551745 0.06013533 0.07804695 -0.13847357
0000d0 98 82 eb be b2 e8 4e be df c4 20 3d 1f ef a8 3d
       -0.45998073 -0.20205954 0.03925025 0.08248734
0000e0 87 67 06 3d 3e 82 0e 3d 11 63 39 3c 99 6d 34 bb
       0.032813575 0.034792177 0.011315123 -0.0027531146
0000f0 52 a6 95 bc 13 d9 c9 39 2d ba 8f bd 2f c6 42 3b
       -0.018267784 0.0003849944 -0.07017932 0.0029720177
000100 75 07 80 b9 dd 16 0f bc c0 36 80 3c b9 ef d5 3b
       -0.00024419618 -0.008733478 0.015651107 0.0065288213
000110 d7 c3 c7 bc 8d 35 f5 bb 28 55 98 bc 9f 56 33 bd
       -0.024385376 -0.0074831904 -0.018595293 -0.04378378
000120 63 b3 e7 be e1 be 1c be 7a ef 03 be 75 93 b2 be
       -0.4525405 -0.1530719 -0.12884322 -0.34878126
000130 09 6a 72 be 34 76 4b be 56 17 dc 3e c5 bf d7 bc
       -0.23673262 -0.1986931 0.42986554 -0.02633656
000140 94 ab ad be e8 43 8b 3e 5d 3b 7a bd 09 df 01 3f
       -0.33919966 0.27200246 -0.06109177 0.5073095
000150 f4 ac 10 3d 78 8e 97 3e 98 d2 3f be 39 cf 4e 3e
       0.03532119 0.29600883 -0.18732679 0.20196237
000160 35 24 04 bf 04 00 6b bd 7c 63 05 be fa e7 9f 3d
       -0.5161775 -0.05737306 -0.13026232 0.07807918
000170 58 6b b4 bd 79 6f bd 3b fe d1 7c be 07 49 fa be
       -0.08809537 0.005781111 -0.2468948 -0.4888384
000180 de e6 00 3f 6b 69 9f be 79 89 b2 bd de 30 37 3e
       0.50352275 -0.31135115 -0.08717627 0.17889735
000190 8b 7a be bd 7c b5 bc 3c 79 c4 a2 be 3d 8a a4 be
       -0.09300717 0.023035757 -0.31790522 -0.32136717
0001a0 73 c9 85 be 64 e8 17 3e 43 1a f6 bd b4 a4 26 3d
       -0.26130256 0.14834744 -0.12016728 0.040684417
0001b0 c9 11 88 3f 55 3c 40 bf 5a ad a4 bd 25 81 69 3e
       1.0630428 -0.7509206 -0.08040877 0.22803171
0001c0 2a 91 0e 3c 43 32 cd bd fe f9 c6 be 9c bb a4 be
       0.008701602 -0.10019352 -0.38862604 -0.32174385
0001d0 27 f6 78 be e9 47 ad be 80 b4 89 bd f0 29 85 3e
       -0.2431265 -0.33843926 -0.06723881 0.26008558
0001e0 e8 4e 4d be 61 9f e1 be 77 dc 82 3b 49 89 ce 3d
       -0.20049632 -0.4406691 0.0039935666 0.10084779
0001f0 09 b3 dd bd 15 88 a0 3e aa 0b 25 3d 76 9f 3c 3d
       -0.10825164 0.31353822 0.040294327 0.04605051
000200 36 eb df bd ea 62 05 bd 9d f9 1f 3d a2 74 21 be
       -0.10933535 -0.032565035 0.03905641 -0.15767148
000210 18 de 26 3c 2e c5 42 3d 0a 5e 73 3d b5 5b da 3d
       0.010184787 0.047551326 0.059415855 0.10662023
000220 96 85 b0 3d 8c 96 b8 3d 9d 4b 1c bd d3 fb 8d bb
       0.086192295 0.090130895 -0.038158048 -0.0043329983
000230 52 d5 ea ba 66 33 88 3c 85 45 22 3d 97 82 d4 bc
       -0.0017916358 0.016626071 0.03961708 -0.025941176
000240 0c 36 77 3e 33 d5 b3 3e ee a3 72 3d d9 db bc 3e
       0.24141711 0.35123596 0.059238367 0.3688648
000250 4c 2f 40 3d 61 d0 7d 3e 62 2f f1 bc f8 40 39 be
       0.046920106 0.24786521 -0.02944154 -0.1809119
000260 81 3e 31 3e 59 2b c3 3c 9c c7 97 bd 6a aa 5c bd
       0.17309 0.02382438 -0.07411119 -0.053873457
000270 8a b9 08 bd 0e a9 ac bd 05 f4 e2 bc 14 8b 3b 3c
       -0.03338007 -0.08430682 -0.027704248 0.011446733
000280 54 20 2c 3c 28 49 60 bd dc 26 24 be 4d 96 0d 3f
       0.0105057545 -0.054757267 -0.16030449 0.55307466
000290 86 93 e3 3d 23 4d 90 3e da fb 0c 3e 13 c2 85 be
       0.11112122 0.2818385 0.13767949 -0.2612463
0002a0 5e 1c 70 be b7 0b 73 3e d0 d4 e1 be bd 64 89 be
       -0.23448321 0.23734938 -0.44107676 -0.2683467
0002b0 14 12 b5 3d 75 b8 c5 be d9 9e 02 3f c4 94 17 be
       0.08841339 -0.38617292 0.5102363 -0.14802843
0002c0 d9 9d 5b be f8 e4 9b bc f8 c9 c6 3e ef 7a 01 3e
       -0.21446933 -0.01903008 0.38825965 0.12644552
0002d0 e4 6f b4 be e3 7e da be cf a5 a6 bd aa da 66 bf
       -0.35241616 -0.42674932 -0.08137094 -0.90177405
0002e0 e9 ea f3 bd 10 ff ba be cc 1c a1 be 56 76 6e 3c
       -0.1191004 -0.36522722 -0.31467283 0.014554581
0002f0 89 3e cc bd b0 66 9f bd 68 c6 bd bd 62 81 52 3e
       -0.09972865 -0.07783258 -0.092663586 0.20557168
000300 ad e6 05 3e 8a c7 4a be c7 3c 8b bd fa 16 d8 3d
       0.13076277 -0.1980268 -0.06798702 0.105512574
000310 54 e2 71 be 77 e1 27 3c c0 9e 53 bb e7 02 27 bd
       -0.23621494 0.010246626 -0.0032290667 -0.040774252
000320 17 5c f3 3c a0 64 df bc a9 34 11 bd c7 2a 61 bd
       0.029706998 -0.027269661 -0.03545061 -0.054972436
000330 e9 a9 6f bd 26 c0 46 bc 68 b2 eb 3c c6 31 fc 3d
       -0.05851165 -0.012130773 0.028771594 0.12314181
000340 5b 43 a2 be da 8e a0 be 99 74 41 bf 3d 9f 26 bf
       -0.31692013 -0.31358987 -0.7556854 -0.6508673
000350 01 75 84 be f7 46 f4 bd 13 be c5 be 19 31 af 3b
       -0.25870517 -0.11927598 -0.38621578 0.005346429
000360 cf 1f 18 bd 27 37 c7 bc 1c b8 0f bd 0a ef 85 bc
       -0.03713971 -0.02431829 -0.03508769 -0.016349334
000370 44 ae 06 3d cf b5 e4 bb 95 18 16 3d 50 c8 d2 3c
       0.032881036 -0.006979681 0.036644537 0.025730282
000380 33 8b 41 3d 49 b8 eb bd 69 c3 c8 bd 34 4f 17 bb
       0.04725189 -0.11509759 -0.098028965 -0.002308798
000390 46 ec 26 be ec 24 2e 3e 27 3a bb bd 60 9f 37 be
       -0.16301069 0.17006272 -0.09141951 -0.1793189
0003a0 72 89 a1 be 7f c5 17 3e 4d 05 73 be 63 1d 91 bd
       -0.31550175 0.14821433 -0.23732491 -0.07085683
0003b0 e6 b8 82 bd c9 8e 1a be 39 0d f9 3d c8 4d 9f be
       -0.06382923 -0.1509353 0.12160725 -0.3111403
0003c0 b0 d2 25 3e a1 f4 8e 3d 14 dd 01 be 1c 48 24 3e
       0.16193652 0.06980253 -0.12681991 0.16043133
0003d0 6b c1 ad 3e bd d1 78 bd 3f 39 42 3e 5d 4e 03 bd
       0.3393663 -0.060746897 0.1896715 -0.032057155
0003e0 1d 20 d0 3e 6d a6 47 3e 33 60 99 be f2 b0 d6 3e
       0.406495 0.1949708 -0.29956207 0.41931874
0003f0 78 1c f9 3e 38 78 e6 3d 10 ab a4 bd 5f 51 2b bd
       0.48654532 0.11253399 -0.0804044 -0.04182565

b2.bias f4 [32]
000000 55 86 10 bf 08 3e 9c 3e fa 8b dd bd 27 c7 25 bd
       -0.56454974 0.30516076 -0.10817714 -0.04047313
000010 2f 66 9e bd dc 25 ee bd 74 60 90 3e 35 31 a2 3c
       -0.07734334 -0.11628315 0.28198588 0.019798854
000020 72 e4 82 3c 46 32 2e bd d1 96 0f be c4 56 fd 3d
       0.015978072 -0.042528413 -0.14022376 0.12370065
000030 ac eb f0 b9 86 70 5f 3e 6c 02 84 bd cc 29 c7 be
       -0.00045951956 0.21820268 -0.064457744 -0.38899076
000040 80 86 64 3d 7b 7c 41 be 75 ec 17 be b9 3e 8a be
       0.05579233 -0.18895142 -0.14836295 -0.2700098
000050 b4 20 fd bd ba 15 e1 3d b6 23 8b be 16 d4 c0 be
       -0.12359753 0.10990472 -0.27175683 -0.3766181
000060 64 2c 22 3e b4 66 e7 bd 8e f0 ae be 55 13 86 3e
       0.15837246 -0.11298886 -0.34167904 0.26186624
000070 d2 66 f6 be eb fd 3a 3e 2a 0b f6 be db 9b 90 bd
       -0.4812532 0.18260925 -0.48055393 -0.07060977

b3.weight f4 [64, 32, 3, 3]
000000 3e bc a4 ba 28 fc b1 bd 76 98 8a be e2 58 81 be
       -0.0012568308 -0.08690673 -0.27069443 -0.25263125
000010 ce f7 7b be f4 8c 47 3e 30 bc 97 be eb 2e 39 be
       -0.24606249 0.19487363 -0.29635763 -0.18084304
000020 f1 48 98 bd 38 a8 f8 be 54 8d 83 be 14 99 64 bd
       -0.074357875 -0.4856584 -0.25693762 -0.05581005
000030 fa ff 21 be c5 9a 97 be 35 bb a2 be 64 d7 6a be
       -0.15820304 -0.29610267 -0.31783453 -0.22933728
000040 bd 01 ff 3c bf b9 89 bc 1f 57 22 bd d7 9c fe bd
       0.031128759 -0.016812203 -0.039633866 -0.124322586
000050 fd c5 89 bd ad 87 ec 3b 85 e9 14 bd 24 40 a9 3e
       -0.067272164 0.0072183223 -0.036355514 0.33056748
000060 37 0f 79 3d 07 c8 91 3e fb 06 b1 3e c2 f3 62 be
       0.060805526 0.2847292 0.34575638 -0.22163299
000070 ff fc c6 bd 8c cf 1e be 69 f4 bf bd 99 58 e6 bd
       -0.09716224 -0.1550886 -0.093727894 -0.112473674
000080 a5 d7 c1 3d f3 43 51 3d 3e c4 db 3d e1 96 60 be
       0.09464959 0.051090192 0.107307896 -0.21932556
000090 a2 c2 09 3d fe 5b c7 3c d9 61 81 be 9f a9 97 be
       0.033632882 0.024335857 -0.25269964 -0.29621598
0000a0 28 1e 13 3e 38 c5 c4 3d 7a c6 8a 3e 74 f9 f1 3e
       0.14366972 0.09607929 0.2710455 0.4726063
0000b0 26 87 4f be 92 5e 1a be 06 53 3c 3e 08 65 b9 bd
       -0.20266399 -0.15075138 0.18391046 -0.09052473
0000c0 a2 63 6a be b6 e5 9c 3e 19 8d c7 bd fd 79 70 be
       -0.2288957 0.30644006 -0.09743709 -0.23484035
0000d0 c3 53 be 3d 73 dc 8a 3e 5e c5 9a 3e cc 08 33 3e
       0.0929332 0.27121314 0.30228704 0.17483824
0000e0 e3 87 86 be 6f a8 95 bc 66 72 53 be 58 7c dd be
       -0.26275548 -0.018268792 -0.20649108 -0.4325893
0000f0 41 87 e1 bd df 7f 37 be 9d e9 e2 be 93 d3 4a be
       -0.11012126 -0.17919873 -0.44318858 -0.19807272
000100 ad af 89 3e c8 c7 39 3d 05 1b 5d bd 12 da 81 3d
       0.26891842 0.045356542 -0.053980846 0.06340422
000110 f8 31 58 3c c8 5e 5e be 81 b8 ef 3d 9b d7 93 3e
       0.013195507 -0.21715844 0.11705113 0.2887543
000120 14 fe 61 3e 4d 6f da 3d d6 bc 63 be e7 f3 35 be
       0.2206958 0.1066576 -0.22240004 -0.17768823
000130 50 48 9d 3e 14 5f 8e bd 3d 9d 94 bd 0e c3 b4 3e
       0.30719233 -0.069517285 -0.07256553 0.35305065
000140 4a 5f 2d be cc b2 c6 be ed 86 83 be 52 e2 f5 3d
       -0.16930881 -0.38808286 -0.25688878 0.12006058
000150 b8 6c a3 3d b0 13 7e 3e 90 d7 a0 3e 0f 21 d5 3e
       0.07979721 0.24812198 0.3141446 0.41626784
000160 df d2 83 3d 0b d4 01 be ee 9f f0 bd bf 25 ae be
       0.06436705 -0.12678544 -0.11749254 -0.34013173
000170 96 55 c2 be 71 f8 60 3e e2 4d 6b be 52 3f 41 3e
       -0.37955922 0.21969773 -0.22978929 0.18871811
000180 46 fe 6d 3e 9b e9 c5 3d 45 13 4b be 81 5c 3e be
       0.23241529 0.09663697 -0.1983157 -0.18589975
000190 c4 b7 50 bd f9 ba 1b be 5b 16 9e 3d 89 17 0d 3e
       -0.050956503 -0.15208043 0.07719108 0.13778509
0001a0 42 01 90 3e f7 d3 8b be b9 02 11 be b8 8f 5a be
       0.2812596 -0.27310154 -0.14161195 -0.21343887
0001b0 1e 8d a9 be 3c 2a 83 3e 57 81 89 bc be 93 0f 3e
       -0.33115476 0.2561816 -0.016785307 0.14021203
0001c0 a9 41 de bc b1 0d 27 be 21 5e a9 3e 16 43 c8 be
       -0.027130919 -0.16313817 0.33079627 -0.39113683
0001d0 21 f8 a9 be 79 3c 61 3d 7e 46 56 3c eb 24 d5 be
       -0.3319712 0.05498931 0.01307833 -0.4162973
0001e0 92 2c 87 be 00 72 96 be e7 37 ca be 06 d2 88 be
       -0.26401192 -0.2938385 -0.39495775 -0.26722735
0001f0 34 47 d8 bd 6b e8 d8 be d5 75 f4 be 24 00 f6 be
       -0.10560456 -0.4236482 -0.4774615 -0.48046982
000200 ff 01 93 bb 2c 2d df 3b 60 3d a8 3e 2f 96 80 3e
       -0.004486322 0.006810805 0.32859325 0.2511458
000210 c0 4b ce 3d 9c 9c 88 be 9a 55 cf 3e 6e 61 b2 3e
       0.10073042 -0.26681983 0.40494996 0.34839958
000220 db f7 82 3d 7e be b0 bc cb 3e cd 3d a0 24 87 3d
       0.06394931 -0.021575209 0.100217424 0.065987825
000230 a3 d4 dc 3e cf 78 88 bd 95 d7 a4 be 21 97 a9 3e
       0.4313098 -0.066636674 -0.32195726 0.33123115
000240 cd bb b4 be e5 01 c9 bd c7 5c 2b be e5 f8 6c 3d
       -0.3529953 -0.098148145 -0.1673461 0.05785455
000250 fb 0e bc 3d 17 94 1b 3e 07 2a 81 be 3c 64 07 be
       0.09182545 0.1519321 -0.25227377 -0.1322183
000260 06 1b c4 3c f7 26 e5 bd f4 e5 41 3e 0a 19 92 bd
       0.023938667 -0.111890726 0.18935376 -0.07133682
000270 d6 58 90 3c 7e 4b 8d 3d 20 d0 d7 be d3 3a 5f be
       0.017620485 0.068991646 -0.42150974 -0.21799783
000280 b2 d9 29 3e eb 24 fe bc 83 4f be 3d 6d cf 8f 3c
       0.1658695 -0.031023463 0.092925094 0.017554963
000290 cd c3 f0 bc dd 42 09 3d b0 9c fc 3a 4c e9 37 bd
       -0.02939024 0.03351103 0.0019272771 -0.044900224
0002a0 62 f8 78 bc ab 85 9c 3c 35 ae ae bc 00 d5 39 3f
       -0.015195938 0.019106707 -0.021323303 0.7259064
0002b0 bc 73 3f bd 56 93 73 3e 93 32 85 be a3 34 db bd
       -0.046741232 0.23786673 -0.26015148 -0.10703399
0002c0 a7 c4 a2 be 13 a8 8e bc ba f5 0b be e0 50 02 bf
       -0.3179066 -0.017414128 -0.13667956 -0.50904655
0002d0 65 7c 86 be 1e f6 26 be 00 8c 5f be ba 64 81 be
       -0.2626678 -0.16304824 -0.2183075 -0.2527216
0002e0 c7 44 b1 ba 52 93 44 3d b1 4d e0 3b 43 69 5f 3e
       -0.0013524526 0.047992058 0.006845199 0.21817498
0002f0 77 8b cc bc 76 82 1c 3e b5 1f 4e be 65 fa aa be
       -0.024968846 0.15284142 -0.20129283 -0.3339416
000300 37 26 a6 be 10 bd 0a 3e 5f 15 cd be a3 43 2e bc
       -0.3245103 0.13548684 -0.40055367 -0.010636243
000310 b7 b4 c5 be 73 d6 bd be 79 67 c2 be d0 c8 15 be
       -0.38614437 -0.37077674 -0.37969568 -0.14627385
000320 07 3e 69 3d f4 1c 76 3e fc ec 4f 3e c5 e4 97 3e
       0.05694392 0.24034482 0.20305246 0.29666725
000330 40 8d dc be 40 5b f5 3d bf 4f 51 bd 90 7d 94 bd
       -0.43076515 0.11980295 -0.051101442 -0.07250512
000340 b9 6e 4f be 10 f8 11 3e a8 b3 02 be ca 24 a6 3c
       -0.20257081 0.14254785 -0.12763846 0.020281214
000350 28 0f 85 be 86 88 b8 3d 39 98 d8 3d b9 2f f7 be
       -0.25988126 0.09010415 0.10575909 -0.48278597
000360 79 ee b3 3e b9 94 2f be 6a 5f ae 3e 90 e1 24 be
       0.35142878 -0.17146577 0.3405717 -0.1610167
000370 41 03 fa bc e9 2c 08 bf b8 b3 a6 bc 20 1b 8e bd
       -0.03051913 -0.5319353 -0.020349368 -0.069387674
000380 ec d4 8c 3d 58 f6 96 be 81 44 95 be f6 2c 6d be
       0.06876549 -0.2948482 -0.29153827 -0.23161682
000390 11 17 1b bd 76 02 67 be 8c 6a 0c be 07 b2 0f 3f
       -0.037863795 -0.22559533 -0.1371252 0.56131023
0003a0 4b 8e 4b 3f 47 8d 9b 3c d5 d3 0c be 56 1c 9e be
       0.79513997 0.018988265 -0.13752683 -0.30880994
0003b0 2e d0 27 bd 05 69 e6 3c 3c bf 89 bd 0a 1b c2 bd
       -0.04097002 0.02812625 -0.06725928 -0.094778135
0003c0 6d 5b 1e 3b 3c fc 1e be 00 62 20 3d 69 9f dc 3c
       0.002416338 -0.15525907 0.03915596 0.026931481
0003d0 b1 e3 ae be 30 cf c3 be 45 31 02 be 3f 56 22 3c
       -0.3415809 -0.3824401 -0.12714107 0.009908258
0003e0 fe ac 27 be 55 8d a2 bd f4 e3 23 3d 52 92 98 3c
       -0.16374585 -0.07937113 0.040012315 0.018624458
0003f0 4d e3 12 be 7f c3 1c 3d 89 d8 9a bc 9c 36 20 be
       -0.14344521 0.038272377 -0.01890208 -0.15645832

b3.bias f4 [64]
000000 7e b3 a1 be 25 26 0e bd 84 22 5e be 61 74 8e be
       -0.31582254 -0.034704346 -0.21692854 -0.27823165
000010 00 cd 92 bb 0a 94 bf bd 30 17 21 be 51 42 36 be
       -0.0044800043 -0.09354408 -0.15731502 -0.17798735
000020 ed 58 77 bd 9d 9c 8a 3a 0c 37 81 bd 1f 99 04 bd
       -0.06038754 0.0010575239 -0.063093275 -0.03237259
000030 20 19 03 be e3 c2 91 3d 8d 82 6c be 01 0b c4 bd
       -0.12802553 0.0711725 -0.23096676 -0.09572411
000040 41 34 50 bd 8c 77 78 3d d0 69 3f be 42 61 1d be
       -0.050831083 0.060660884 -0.18692708 -0.15369132
000050 fb 3b 84 bc 1b 0f 0f be 69 a9 c4 3e da ce 3c bd
       -0.016141882 -0.13970606 0.384105 -0.046095707
000060 7b 4f b4 bd e0 f0 cf 3d 15 6b b8 3d d4 f4 1a be
       -0.08804222 0.10153365 0.09004799 -0.15132457
000070 34 4d 4e be d4 29 94 3e c3 ab f7 bd f3 5a 85 3e
       -0.20146638 0.28938162 -0.12093308 0.2604595
000080 89 7d 92 be 42 fe 50 bd f5 ca 12 3c 35 37 8b 3d
       -0.286114 -0.05102373 0.008959522 0.06797639
000090 c0 06 bd 3b 9b e2 a4 3c c7 d5 8d be be c4 39 3d
       0.005768627 0.020127585 -0.27702162 0.045353644
0000a0 ee a6 52 3e 0b 68 0e 3f fb 4c e5 3d 45 4f 4d be
       0.20571491 0.55627507 0.111963235 -0.2004977
0000b0 ff f0 7d be 9a 20 f7 bd 28 55 9f bd 48 0c 11 be
       -0.24798964 -0.12066765 -0.07779914 -0.14164841
0000c0 b8 d8 6d be 2a f2 bf 3e 8b 0b fd bd 4a 97 02 be
       -0.23227203 0.37489444 -0.12355717 -0.12753025
0000d0 93 fd 84 be 4a 9c 6e bd 1e b6 1d be 2b 9b 01 3f
       -0.25974712 -0.058254518 -0.15401503 0.5062739
0000e0 9f 3f b2 3e 5c b6 e1 bd 62 a3 04 bb 02 e5 2b be
       0.34814164 -0.110211104 -0.0020238985 -0.16786578
0000f0 df 35 1a be f0 d6 09 be cb 49 56 3c 99 b1 a6 bd
       -0.15059613 -0.13460898 0.013079117 -0.08139343
