data/model_dataset_56000_convnet.pth (torch, 648414 bytes, 25 tensors)

a1.weight f4 [16, 2, 3, 3]
-0.611986 -0.051001966 -0.20045155 0.42625672 -0.233882 -0.0696313 -0.06037586 -0.24268149
-0.020043133 0.161047 -0.10461159 0.06193185 -0.030419273 -0.02957616 -0.023889564 -0.026715979
0.02434351 0.0141484495 0.112057865 -1.7207725 -0.6737012 0.09663844 -2.3328128 -2.7138906
0.06809073 0.105477564 0.069445536 0.012418009 0.02199195 -0.08077098 0.0056650545 0.09767031
-0.094019234 -0.05981135 -0.025644302 0.11970968 -0.16192982 0.044039443 -0.010341192 -0.019055674
0.4034072 -0.020359267 0.0048799794 -3.1223693 0.35739076 -0.10257247 -0.006169631 -0.05291912
-0.028343774 0.058018476 -0.06356146 0.08163646 0.086903214 0.002188232 -1.1132377 0.17034759
0.1370779 -0.07379734 0.009203213 -1.733899 0.25823414 -1.8853424 0.047487736 -0.042332325
-0.1710441 0.124370545 0.034522336 0.056902833 0.07879701 -0.05836854 -0.027019143 -0.069595076
-1.5806988 -1.3789508 -0.08028763 -2.2486348 0.24860436 -3.3680873 -0.09704594 0.1292752
-0.023970181 0.13088138 -0.14859822 -0.030465987 0.040186547 0.10255714 0.02337411 -0.24225631
0.13583834 -0.14782059 0.06412543 0.020727094 0.15492518 -4.891287 -0.010267974 0.015172694
0.21439262 0.20256095 0.0101572005 0.001883196 -0.15601581 0.027530579 -0.03174014 -0.19749504
0.016826997 -0.024586346 0.08600576 0.13735771 -0.72910386 -0.72348917 -0.09393211 0.019639209
-1.5236719 0.17171553 0.076730385 -1.5551836 -0.10679867 -0.08890314 0.3748989 -0.15863058
0.036223546 0.06750886 0.0070231836 -0.024632422 -0.13275813 0.02442439 -0.19821297 -0.29200125
-0.04796332 -0.012150523 -0.045004282 -0.3158142 -0.23210268 -1.6267666 -0.20031253 -0.013120805
-0.0045593465 -0.060513668 -0.009427703 0.10340867 0.057573065 -0.09574486 -0.05590716 -0.012746515
0.19362769 0.18297032 0.051366564 -2.6958394 -0.016347451 -1.0904763 -1.8575983 -0.68830365
0.08745922 0.06314451 -0.04354788 -0.005454825 -0.07510883 -0.1440207 -0.20915487 -0.14840785
0.14674185 0.03178846 -1.1577716 0.019264994 -1.410113 -1.0262436 -0.050458197 -1.6432015
-1.7124639 -0.3947309 -1.6034163 -0.06747894 0.06959775 -0.15303321 0.10994104 0.011703057
0.07459782 -0.11616788 0.1278428 -0.07488174 0.13720731 0.22803557 -1.6819553 0.13148351
-2.2896802 -3.9442718 0.12979525 -0.09004639 -1.1881132 0.19310981 0.06352184 -0.025171882
-0.14281988 -0.05908846 0.04273532 -0.005353979 -0.0335589 0.018878251 0.0037835366 -0.0149179865
-0.0036448343 0.003915609 0.30739358 0.26214164 0.30278456 -0.009433702 0.0013235022 -0.035226386
0.023474658 -0.0048437836 0.012060482 -0.019389438 -0.067296244 -0.04767992 -0.028366191 0.1582229
0.19257744 -0.08416076 -0.020778824 0.16587354 -0.029135209 -0.07170782 0.18437567 -2.2824383
-0.009234657 0.019802636 -0.16564758 0.026249794 -0.18887882 0.113418244 0.24938543 0.27529833
-0.057993006 -0.07448006 -0.006233332 0.0143840695 0.0145403715 0.010755733 0.46673438 0.29091835
-0.03264036 -0.011142645 0.21179236 -0.15119953 0.1204167 -0.15742989 0.1669193 -0.027808899
0.08547467 -0.048149742 0.0375343 -0.06927429 -1.1740743 0.1770271 0.17317373 0.15189631
00000000: 1dab 1cbf 70e7 50bd 2c43 4dbe 523e da3e
00000010: c37e 6fbe db9a 8ebd ae4c 77bd 7f81 78be
00000020: 7f31 a4bc 81e9 243e 9a3e d6bd 40ac 7d3d
00000030: d731 f9bc b449 f2bc 0cb4 c3bc 78db dabc
00000040: 0a6c c73c e6ce 673c 987e e53d 4642 dcbf
00000050: af77 2cbf 60ea c53d ce4c 15c0 62b0 2dc0
00000060: 2773 8b3d 9f04 d83d 7639 8e3d e874 4b3c
00000070: 7628 b43c 416b a5bd eca1 b93b 5f07 c83d
00000080: 288d c0bd bffc 74bd 0014 d2bc 592a f53d
00000090: eed0 25be b462 343d 1a6e 29bc a51a 9cbc
000000a0: 638b ce3e 7ac8 a6bc 3ce8 9f3b e6d4 47c0
000000b0: ecfb b63e 8411 d2bd 9e2a cabb b8c1 58bd
000000c0: 3431 e8bc c8a4 6d3d 832c 82bd 0431 a73d
000000d0: 50fa b13d 7168 0f3b 937e 8ebf 996f 2e3e
000000e0: 265e 0c3e 0f23 97bd 13c9 163c 67f0 ddbf
000000f0: 4437 843e e652 f1bf 8082 423d a964 2dbd
00000100: 2f26 2fbe fcb5 fe3d 4b67 0d3d f212 693d
00000110: 5460 a13d da13 6fbd 4057 ddbc dd87 8ebd
00000120: 5754 cabf 7681 b0bf d76d a4bd a2e9 0fc0
00000130: 2492 7e3e be8e 57c0 06c0 c6bd b860 043e
00000140: 1d5d c4bc c505 063e 222a 18be ce93 f9bc
00000150: a69a 243d 7a09 d23d 107b bf3c 0a12 78be
00000160: 3519 0b3e 485e 17be 3254 833d decb a93c
00000170: b5a4 1e3e 6c85 9cc0 013b 28bc e496 783c
00000180: bd89 5b3e 236c 4f3e 636a 263c 92d5 f63a
00000190: 9cc2 1fbe cf87 e13c f301 02bd 243c 4abe
000001a0: c5d8 893c 4e69 c9bc ca23 b03d 80a7 0c3e
000001b0: 8da6 3abf 9636 39bf 7a5f c0bd 68e2 a03c
000001c0: ae07 c3bf 32d6 2f3e d224 9d3d 4210 c7bf
000001d0: 43b9 dabd d912 b6bd c0f2 bf3e 0e70 22be
000001e0: 245f 143d 1642 8a3d bc22 e63b efc9 c9bc
000001f0: bff1 07be a915 c83c 57f8 4abe 3081 95be
00000200: 3075 44bd fd12 47bc 6956 38bd 66b2 a1be
00000210: 53ac 6dbe e339 d0bf ba1e 4dbe a5f8 56bc
00000220: 9266 95bb 2edd 77bd a776 1abc edc7 d33d
00000230: bcd1 6b3d e215 c4bd e8fe 64bd c2d6 50bc
00000240: 5646 463e 925c 3b3e bf65 523d a288 2cc0
00000250: 17eb 85bc ba94 8bbf c8c5 edbf ab34 30bf
00000260: d21d b33d e951 813d 435f 32bd 63be b2bb
00000270: a9d2 99bd 2a7a 13be b22c 56be 3af8 17be
00000280: 7f43 163e 9e34 023d dc31 94bf 9fd1 9d3c
00000290: 957e b4bf f35b 83bf 41ad 4ebd 6d54 d2bf
000002a0: 0432 dbbf 2b1a cabe bf3c cdbf 6632 8abd
000002b0: 4489 8e3d bdb4 1cbe c528 e13d 2ebe 3f3c
000002c0: bec6 983d 6de9 edbd 39e9 023e 995b 99bd
000002d0: 1380 0c3e 2882 693e 504a d7bf 9da3 063e
000002e0: 1f8a 12c0 f36e 7cc0 0ce9 043e 3e6a b8bd
000002f0: 1814 98bf 94be 453e bd17 823d 4335 cebc
00000300: 603f 12be be06 72bd 3b0b 2f3d 6e70 afbb
00000310: 0f75 09bd 90a6 9a3c 36f5 773b 926a 74bc
00000320: 2cde 6ebb 824e 803b b162 9d3e 6e37 863e
00000330: 9406 9b3e d08f 1abc 5d79 ad3a 8b49 10bd
00000340: ed4d c03c 9ab8 9ebb 5499 453c 99d6 9ebc
00000350: 9dd2 89bd 054c 43bd 3760 e8bc 2f05 223e
00000360: 0533 453e 7a5c acbd 5a38 aabc c1da 293e
00000370: f6ac eebc 8ddb 92bd facc 3c3e 7813 12c0
00000380: f54c 17bc 2339 a23c 859f 29be cf09 d73c
00000390: 7369 41be d347 e83d e55e 7f3e e7f3 8c3e
000003a0: 138a 6dbd 0089 98bd fb40 ccbb 29ab 6b3c
000003b0: bd3a 6e3c d038 303c cff7 ee3e 40f3 943e
000003c0: e6b1 05bd a48f 36bc 19e0 583e 0dd4 1abe
000003d0: 089d f63d 4d35 21be e5ec 2a3e 7dcf e3bc
000003e0: 580d af3d aa38 45bd 91bd 193d aedf 8dbd
000003f0: 1148 96bf 9846 353e 7454 313e b58a 1b3e

a1.bias f4 [16]
-0.8021552 0.44613382 -1.8678825 -0.65026176 0.27797425 -0.92054075 0.49590337 1.1633422
-0.03743267 0.9017271 -0.6974166 -1.5988463 -0.26984265 -0.5058231 -0.2018317 -3.1690755
00000000: 0b5a 4dbf a76b e43e c616 efbf 8e77 26bf
00000010: a452 8e3e 8fa8 6bbf 0ce7 fd3e 66e8 943f
00000020: 0053 19bd 96d7 663f e589 32bf ffa6 ccbf
00000030: d128 8abe 9f7d 01bf f8ac 4ebe 22d2 4ac0

a2.weight f4 [16, 16, 3, 3]
0.14408918 0.033034172 -0.06589366 -0.02997632 -0.007989014 -0.22669113 0.21964327 -0.36791554
0.35027504 -0.027989436 0.038096353 0.18741708 0.24350533 -0.004019881 -0.24703579 -0.014353153
0.016873024 -0.044023767 0.05463299 0.18213856 -0.0052733454 0.34865057 -0.69840395 0.08595411
-0.31068248 -2.0219502 -0.48287994 0.017128645 0.09759949 -0.0985779 -0.090401754 -0.15603781
-0.0594842 0.37579757 -0.10966539 0.1982733 -0.0022463815 0.14922592 0.08639865 -0.03158849
0.15789454 0.017649744 -0.009566206 -0.18584256 0.42687425 -0.012562027 0.057211418 0.12078959
0.045655645 -0.12108733 0.162079 -0.26331964 0.08564607 0.53774387 -0.12448415 0.046981752
-0.06681894 0.11254691 0.018120334 -0.033134468 0.14113313 -0.00831212 -0.42177877 -0.07660926
0.10152909 -0.31431636 0.15504664 -0.106039986 0.24659401 0.038175035 -0.18038595 -0.63404626
-0.057268836 -0.03816284 -0.14634553 0.042294577 -0.13360572 -0.11747724 0.13210984 -0.31615892
0.43292248 -0.03103516 0.021607736 0.049016573 0.15016083 -0.65174687 -0.17975369 -0.06847232
-0.73978204 0.025172576 -0.03515499 -0.124296375 0.38535187 -0.020173226 -0.2723294 -0.016721442
-0.09483106 -0.5979038 -0.18975404 0.034955826 -0.19457643 -0.028244155 0.16877607 -0.250301
-0.065429464 -2.7484648 0.020812578 -0.258705 -0.010230399 0.020132216 0.015630541 -0.20055129
0.01090743 -0.11706701 -0.018482195 0.014774932 0.08773297 -0.057170663 0.2160828 0.11023236
-0.08214858 0.5321458 -0.19129245 0.91739833 0.8318111 0.9150445 0.028786464 0.0006059593
0.0155347055 -0.007158677 -0.024152542 -0.25917476 -0.3480166 -0.13123532 0.1826298 -0.8437881
-2.579774 -0.28220236 -4.348544 -3.1777928 -0.50952286 -3.1615686 -1.0698146 -1.9719272
-0.40328598 -0.30542767 0.5436692 0.09241354 -0.034005295 -0.48743528 0.15440351 -0.27544832
-0.84590495 0.09915549 0.44350287 0.015989887 0.35323602 -0.052963834 -0.044008113 -2.5432098
-0.80050635 0.6672468 -0.651172 -0.25894576 0.27420396 0.09056953 -3.7451258 0.22002687
-0.5659408 -0.41336483 0.14388946 -0.07294177 -0.1954409 0.060316492 0.46496952 -3.131783
0.1472995 -1.3219863 -0.10907566 -0.0041064066 0.13387345 0.027130503 -0.13776469 0.23853321
0.26729494 0.29311597 -0.2751592 0.015883315 -1.0952854 -0.07264031 -0.062405635 0.035817593
-0.16282947 -0.89631623 -0.33033118 0.34776273 0.47686717 -2.6231341 -0.008610307 0.20920162
-0.42101586 -0.43615583 -1.9998307 0.1565593 -0.79594284 -1.6768018 0.3763971 -0.1785582
0.7446067 -0.30436558 0.5416596 -1.6154001 0.67469734 0.27477825 0.38324738 0.1867791
0.099689245 0.34609973 0.12797916 0.27956283 -0.26862082 -0.5132495 -0.49175435 0.2131589
-2.8336446 0.18438692 0.10317637 0.32659987 -0.0061580767 0.20518187 -1.7512354 -3.6548588
-0.03703301 -0.4560757 0.087873556 0.1996727 0.24606493 -0.20747022 -0.020909576 -0.239621
-1.3938377 -2.3906353 0.15811512 0.34417233 -0.59407043 0.084584296 0.2624056 0.16979505
0.0006983277 0.12119465 -0.4048987 0.5144053 -0.24560611 -0.042757373 -0.036600564 0.5564239
00000000: 1d8c 133e d74e 073d 41f3 86bd e690 f5bc
00000010: 5ae4 02bc b821 68be 2aea 603e 6d5f bcbe
00000020: 4057 b33e 1a4a e5bc ec0a 1c3d 43ea 3f3e
00000030: 7659 793e 35b9 83bb f3f6 7cbe 7d29 6bbc
00000040: 4c39 8a3c 4452 34bd d8c6 5f3d 8882 3a3e
00000050: 07cc acbb 5482 b23e 9aca 32bf b508 b03d
00000060: c611 9fbe a267 01c0 0a3c f7be 5f51 8c3c
00000070: 3ee2 c73d 36e3 c9bd 8e24 b9bd 60c8 1fbe
00000080: b4a5 73bd 8a68 c03e 3f98 e0bd 2808 4b3e
00000090: 0738 13bb aece 183e c7f1 b03d ef62 01bd
000000a0: 1baf 213e 3296 903c 93bb 1cbc 834d 3ebe
000000b0: 438f da3e f6d0 4dbc 8556 6a3d 8860 f73d
000000c0: 6a01 3b3d a2fc f7bd 0af8 253e d5d1 86be
000000d0: 3567 af3d 95a9 093f 8cf1 febd f06f 403d
000000e0: 5ed8 88bd ff7e e63d 1871 943c 02b8 07bd
000000f0: 3485 103e 8f2f 08bc 63f3 d7be 51e5 9cbd
00000100: 7cee cf3d 13ee a0be 8cc4 1e3e 7e2b d9bd
00000110: 2483 7c3e 6d5d 1c3d 18b7 38be db50 22bf
00000120: ba92 6abd a350 1cbd 9adb 15be 143d 2d3d
00000130: f0cf 08be e897 f0bd cd47 073e 95df a1be
00000140: 04a8 dd3e 733d febc b502 b13c 9ac5 483d
00000150: c3c3 193e e2d8 26bf 5a11 38be 373b 8cbd
00000160: 5b62 3dbf b836 ce3c aefe 0fbd 198f febd
00000170: d74c c53e 5242 a5bc c26e 8bbe 68fb 88bc
00000180: c936 c2bd 3910 19bf e24e 42be d72d 0f3d
00000190: 0b3f 47be 4960 e7bc a2d3 2c3e 7427 80be
000001a0: e2ff 85bd d9e6 2fc0 247f aa3c fb74 84be
000001b0: 679d 27bc 51ec a43c 9f0b 803c 515d 4dbe
000001c0: 14b5 323c d4c0 efbd f967 97bc 8e12 723c
000001d0: 58ad b33d c92b 6abd cf44 5d3e 81c1 e13d
000001e0: 843d a8bd b53a 083f 2be2 43be 9eda 6a3f
000001f0: 92f1 543f 5b40 6a3f 97d1 eb3c 3ed9 1e3a
00000200: 4785 7e3c 5693 eabb 8ddb c5bc 8eb2 84be
00000210: 3b2f b2be 8d62 06be 4e03 3b3e 7f02 58bf
00000220: 041b 25c0 d47c 90be 4627 8bc0 f560 4bc0
00000230: 1770 02bf 2457 4ac0 afef 88bf 1c68 fcbf
00000240: 807b cebe 0461 9cbe e82d 0b3f 4f43 bd3d
00000250: 2349 0bbd 1e91 f9be f41b 1e3e 9007 8dbe
00000260: 3a8d 58bf 0912 cb3d cf12 e33e 39fd 823c
00000270: 5adb b43e 9bf0 58bd da41 34bd f3c3 22c0
00000280: fced 4cbf b0d0 2a3f 35b3 26bf 8a94 84be
00000290: 7664 8c3e 857c b93d 24b0 6fc0 b94e 613e
000002a0: 7fe1 10bf 8ea4 d3be c257 133e 7f62 95bd
000002b0: a921 48be 6d0e 773d 7c10 ee3e 226f 48c0
000002c0: aed5 163e d936 a9bf 0f63 dfbd 098f 86bb
000002d0: 1f16 093e ca40 de3c 3012 0dbe 0d42 743e
000002e0: e2da 883e 4c13 963e abe1 8cbe ba1d 823c
000002f0: 5032 8cbf 71c4 94bd 0d9d 7fbd 78b5 123d
00000300: c5bc 26be fb74 65bf 2b21 a9be f50d b23e
00000310: ef27 f43e 6ee1 27c0 3f12 0dbc f338 563e
00000320: 648f d7be d14f dfbe 74fa ffbf 1551 203e
00000330: e9c2 4bbf 71a1 d6bf 1fb7 c03e f6d7 36be
00000340: 8b9e 3e3f ced5 9bbe 34aa 0a3f 6ec5 cebf
00000350: f7b8 2c3f bcaf 8c3e 0039 c43e 0543 3f3e
00000360: e029 cc3d fc33 b13e f80c 033e dc22 8f3e
00000370: ab88 89be 5264 03bf 3ac7 fbbe 5446 5a3e
00000380: 6f5a 35c0 edcf 3c3e 224e d33d 1938 a73e
00000390: b1c9 c9bb 321b 523e 7b28 e0bf 35e9 69c0
000003a0: edaf 17bd c182 e9be 0df7 b33d 0077 4c3e
000003b0: 72f8 7b3e 1373 54be 8f4a abbc 355f 75be
000003c0: 4669 b2bf 2b00 19c0 eee8 213e 5b37 b03e
000003d0: 0015 18bf 883a ad3d 075a 863e c1de 2d3e
000003e0: fb0f 373a e734 f83d e24e cfbe 11b0 033f
000003f0: 2b80 7bbe 5b22 2fbd 79ea 15bd cc71 0e3f

a2.bias f4 [16]
1.4848468 1.5976958 -0.2634282 0.24742866 1.0828316 -1.7700248 -2.1872904 1.7764782
-1.5580719 -0.6308187 0.5446333 1.2419091 -0.14443883 -0.17091726 -0.93038714 -0.94784963
00000000: 760f be3f 4c81 cc3f 10e0 86be f05d 7d3e
00000010: 3a9a 8a3f 2c90 e2bf 91fc 0bc0 a363 e33f
00000020: e66e c7bf 567d 21bf 176d 0b3f e1f6 9e3f
00000030: c6e7 13be ef04 2fbe da2d 6ebf 46a6 72bf

a3.weight f4 [32, 16, 3, 3]
0.209479 -0.7737546 0.31789964 0.31266403 0.49761122 -0.33137813 0.07055478 0.8016557
-0.027093267 1.2914913 1.9442084 -0.035781156 0.57197684 -0.04783502 -0.29818696 0.31237713
0.2541653 0.40334135 -0.2985237 0.38011193 0.4132764 0.06430916 0.21296884 -0.39752704
0.51858026 0.11948541 0.2581485 0.98301536 -0.51683265 -0.22979133 0.027537374 0.6150063
-0.07605301 -0.4835719 -0.41283065 0.18364844 1.0376397 0.57848024 0.35849696 0.77363735
2.934548 0.54715514 0.58427095 -1.313771 0.6997843 -0.91024137 0.016640509 0.29401764
-0.5384007 0.28525323 0.25730532 -0.030113954 0.34266716 -0.046963632 -1.1986889 -0.83390373
-0.05267331 -1.1058792 0.47035977 0.13888817 -0.34658536 -0.07428752 0.45879108 -0.45501873
-0.27594924 -0.037929144 0.5658018 0.5614955 0.12256816 0.0500982 -0.31533694 0.08979894
-0.28233528 -0.2115651 0.1544005 -0.5671852 -0.26006112 0.08395096 -0.18001384 -0.02837121
0.120408274 -3.396794 -0.120699264 0.4210451 0.51082796 -0.09321549 0.13350073 0.48283023
0.3909947 0.12454146 -0.08959196 0.67516005 0.3835438 0.27923074 0.15283476 0.4930634
-0.6838962 -0.116280116 0.18565579 -0.25345752 -0.15896274 0.5324956 0.33068186 1.3021885
-1.2061715 0.4757186 -0.6102101 -0.26970598 -0.96343714 0.21356219 0.3882924 -0.6663817
0.08027881 0.51103836 -0.3199797 -0.31330332 0.19456989 -0.09947212 -0.9286143 0.079543926
0.29855463 -0.43500003 -0.36456737 0.59926915 0.12754913 -0.15643972 -0.77984715 -0.4086021
0.39511764 -0.76744294 0.014177868 0.28210375 -0.015290971 0.27075604 0.2285894 -0.5002126
-0.070280865 0.016330713 -0.057701394 0.43303135 -0.22022896 0.38919252 0.00771669 0.43443936
1.2756962 0.56631017 0.42520738 1.2354509 0.74205494 -0.51575065 0.17616701 -0.15516539
-0.98987085 0.5020195 -0.4118398 -0.26209676 -0.27892476 -0.5666202 -1.5816301 -1.2510531
0.57018894 0.17406444 -0.68433934 -0.61829454 0.8314081 -0.4148158 0.22288665 -0.22071649
1.276541 0.21605448 0.106422745 -1.5061371 0.949164 0.16329978 -0.22774172 0.34903494
-0.1090395 0.31782454 -0.33842695 -0.8721486 0.13713817 -0.61226064 -0.32481852 0.6025466
0.5013534 -0.2683873 -0.2594196 0.32312468 -0.9628822 -1.1395766 -0.8642317 -0.2036779
0.21957217 -0.93383646 0.22641969 -0.295271 -0.15178026 0.29692668 -0.7072254 0.042190827
0.17911214 -0.6007762 -0.16056141 -0.90500534 0.09672988 -0.49511588 -0.4439244 -0.24415174
-0.7534281 -0.7736296 0.14490138 -0.57929325 -1.193146 0.40076834 1.0004953 -0.045696996
-0.23321927 0.08263103 -0.34537223 -0.45072946 -0.26870272 -0.142343 -0.40313175 -0.14097753
0.17912395 0.014466002 -0.48702356 0.5470741 -0.29678884 -2.1864097 0.13181219 0.70794886
1.0842705 0.2881671 -0.71569073 0.21837743 0.33569935 0.23973297 0.25704402 -0.5341918
-0.8784276 -0.06424459 -0.48598582 -1.0470002 -0.79349166 -0.38393983 -0.81695414 0.09254218
-0.29784715 0.15650624 0.3063838 -0.66460264 -0.22581932 0.109063536 0.28994533 0.83868045
00000000: aa81 563e c814 46bf bec3 a23e 8015 a03e
00000010: e6c6 fe3e 65aa a9be 067f 903d 4f39 4d3f
00000020: b3f2 ddbc 964f a53f d2db f83f 438f 12bd
00000030: 136d 123f a7ee 43bd f6ab 98be e5ef 9f3e
00000040: f421 823e c282 ce3e 19d8 98be 089e c23e
00000050: f798 d33e 85b4 833d 8114 5a3e aa88 cbbe
00000060: adc1 043f c4b4 f43d 0a2c 843e e5a6 7b3f
00000070: 254f 04bf 6b4e 6bbe 0f96 e13c 0e71 1d3f
00000080: aec1 9bbd bc96 f7be 8a5e d3be 560e 3c3e
00000090: 61d1 843f 4817 143f ea8c b73e 190d 463f
000000a0: a2cf 3b40 5c12 0c3f c892 153f a629 a8bf
000000b0: 1025 333f 9405 69bf ad51 883c 7b89 963e
000000c0: a1d4 09bf b60c 923e 86bd 833e 8ab1 f6bc
000000d0: 1272 af3e f05c 40bd a36e 99bf b77a 55bf
000000e0: f8bf 57bd 738d 8dbf ffd2 f03e b338 0e3e
000000f0: a373 b1be 0e24 98bd aae6 ea3e 37f8 e8be
00000100: 3849 8dbe 975b 1bbd 63d8 103f 2bbe 0f3f
00000110: 0405 fb3d c533 4d3d d873 a1be 82e8 b73d
00000120: 408e 90be 86a4 58be 2a1b 1e3e 0d33 11bf
00000130: bb26 85be 7bee ab3d 8c55 38be bd6a e8bc
00000140: 9d98 f63d 1365 59c0 2d31 f7bd 3993 d73e
00000150: 9fc5 023f c3e7 bebd 6ab4 083e 8635 f73e
00000160: 7530 c83e 980f ff3d fd7b b7bd 4ad7 2c3f
00000170: da5f c43e 55f7 8e3e b780 1c3e ce72 fc3e
00000180: d213 2fbf 4524 eebd 8d1c 3e3e 2fc5 81be
00000190: 21c7 22be a251 083f 224f a93e 1dae a63f
000001a0: d463 9abf 6391 f33e bb36 1cbf e716 8abe
000001b0: d1a3 76bf 0cb0 5a3e 43ce c63e fe97 2abf
000001c0: 3769 a43d 69d3 023f 61d4 a3be 4b69 a0be
000001d0: 543d 473e 0ab8 cbbd abb9 6dbf ede7 a23d
000001e0: 27dc 983e 53b8 debe 93a8 babe b469 193f
000001f0: 3d9c 023e bc31 20be 10a4 47bf 4b34 d1be
00000200: dc4c ca3e 2477 44bf 4a4a 683c e76f 903e
00000210: fb86 7abc 89a0 8a3e 5713 6a3e ef0d 00bf
00000220: 6aef 8fbd fdc7 853c 4c58 6cbd 49b6 dd3e
00000230: b383 61be 3e44 c73e 4adc fc3b d66e de3e
00000240: 034a a33f b4f9 103f c8b4 d93e 4123 9e3f
00000250: 50f7 3d3f 3c08 04bf 2065 343e ade3 1ebe
00000260: 2d68 7dbf 5a84 003f abdc d2be 8c31 86be
00000270: 3acf 8ebe 050e 11bf db72 cabf 8222 a0bf
00000280: e7f7 113f f33d 323e dd30 2fbf 8d48 1ebf
00000290: 29d7 543f bd62 d4be 663c 643e 8103 62be
000002a0: b265 a33f 633d 5d3e 2bf4 d93d 1ac9 c0bf
000002b0: 69fc 723f 0f38 273e 2035 69be b5b4 b23e
000002c0: 1a50 dfbd e6b9 a23e 4c46 adbe 2145 5fbf
000002d0: f36d 0c3e 1dbd 1cbf 9d4e a6be 7e40 1a3f
000002e0: b258 003f 0f6a 89be a5d2 84be 9970 a53e
000002f0: 737f 76bf a5dd 91bf 4a3e 5dbf f090 50be
00000300: 87d7 603e e80f 6fbf 90da 673e c32d 97be
00000310: 496c 1bbe c606 983e b90c 35bf 4ad0 2c3d
00000320: 2c69 373e 78cc 19bf 366a 24be 6eae 67bf
00000330: 511a c63d d47f fdbe 0f4a e3be ea02 7abe
00000340: aae0 40bf 970c 46bf 0761 143e 904c 14bf
00000350: 02b9 98bf 8231 cd3e 3b10 803f c62c 3bbd
00000360: 08d1 6ebe 753a a93d a1d4 b0be 03c6 e6be
00000370: 6793 89be 5dc2 11be 4967 cebe 6a5c 10be
00000380: 456c 373e cf02 6d3c 275b f9be 0c0d 0c3f
00000390: b5f4 97be 23ee 0bc0 c6f9 063e 233c 353f
000003a0: 60c9 8a3f a38a 933e 8237 37bf 559e 5f3e
000003b0: c9e0 ab3e 8f7c 753e 469b 833e cbc0 08bf
000003c0: a2e0 60bf ab92 83bd 22d3 f8be 1a04 86bf
000003d0: 4522 4bbf c393 c4be e823 51bf c186 bd3d
000003e0: 6c7f 98be 2c43 203e 56de 9c3e 6623 2abf
000003f0: 2e3d 67be b45c df3d b773 943e c3b3 563f

a3.bias f4 [32]
1.4734797 0.4369924 -0.3085379 -0.88319254 0.5049082 -1.6207709 -0.05443548 2.1039255
0.20330958 0.11713414 -1.0950034 -0.41114768 1.1090225 2.5610096 -0.87982225 0.4891489
1.9050298 0.011527547 -1.2581873 0.0479189 -0.09455404 -0.31526834 -0.28191417 1.7708338
1.1347282 -1.9477146 -0.9578137 -1.1971188 -1.6991382 -1.7171865 1.2985717 0.03661026
00000000: fc9a bc3f 78bd df3e aef8 9dbe e818 62bf
00000010: aa41 013f 6c75 cfbf bdf7 5ebd b7a6 0640
00000020: 6330 503e 06e4 ef3d 1229 8cbf f381 d2be
00000030: 73f4 8d3f 95e7 2340 083c 61bf ba71 fa3e
00000040: 04d8 f33f 09de 3c3c 480c a1bf 9c46 443d
00000050: 8ca5 c1bd da6a a1be 0e57 90be afaa e23f
00000060: c63e 913f b64e f9bf 4733 75bf 303b 99bf
00000070: 5c7d d9bf c4cc dbbf 9937 a63f a4f4 153d

b1.weight f4 [32, 32, 3, 3]
0.021693837 -0.011658439 -0.003973309 -0.14715603 -0.030990617 0.05448335 -0.09121775 0.043542657
0.048904363 -0.11133674 0.056003038 -0.010680667 -0.059416473 -0.09446133 0.00027123376 -0.11578489
-0.10152579 0.06814934 0.013065567 -0.06934019 -0.053374484 -0.09313795 -0.02405922 -0.010974432
-0.11763744 -0.013821339 -0.051899217 -0.01084669 0.0046728603 0.0031146782 0.06283497 -0.044811636
0.022695065 -0.010307079 -0.026199652 -0.032302808 0.03780176 0.055954326 -0.038505536 0.04277635
-0.016084475 0.025432514 -0.0011613558 0.029380277 -0.035845228 -0.055623658 -0.066652566 -0.08088167
-0.022583472 -0.025007287 0.049819976 0.07858752 0.00848526 -0.008969379 -0.015948 -0.038227245
-0.031319514 -0.053607624 -0.042021506 -0.04922202 0.0009843592 -0.01133459 -0.027216071 0.05601124
0.0045123687 0.038049154 -0.02579652 -0.10807673 0.07376975 -0.081314854 -0.0037944454 -0.101651885
-0.057228312 0.04030586 -0.03867067 -0.050558988 -0.07643775 -0.04210558 -0.013924922 0.03836454
0.059968602 -0.11128524 -0.022522705 -0.014621287 -0.01825237 -0.041650753 -0.03281745 -0.14847463
-0.01541795 -0.077477574 -0.09248662 -0.08493376 -0.038332988 -0.048515327 -0.12572695 -0.0067734295
-0.042214513 -0.20046116 -0.07391785 0.056054886 0.030203734 -0.04842198 -0.053312648 -0.0021490674
0.03376888 -0.05691045 -0.08615037 -0.057580322 0.028998619 -0.020362232 0.034284428 -0.042553328
-0.11735782 0.020488277 -0.08682472 -0.11360344 -0.025425982 -0.046627548 -0.004607797 -0.0019548615
-0.08351436 -0.09910996 -0.08035014 -0.016343717 0.018955773 -0.040115993 -0.00089533714 -0.0625548
-0.036354743 0.03254407 -0.10313381 0.010327464 -0.011282321 0.013933013 -0.023164624 -0.06527907
-0.11256883 -0.0525421 -0.08344934 -0.05250183 0.009656563 -0.034730285 -0.04483953 -0.06392298
-0.06834048 -0.024049345 0.0076464443 -0.0013417779 -0.033770084 -0.05929915 -0.04027334 -0.072293304
-0.044710945 -0.037196282 0.05347608 -0.006368547 -0.0042132568 -0.0769499 -0.001193202 0.008761834
0.09989294 0.049404424 -0.074966915 -0.030540304 -0.0499408 -0.04238296 -0.09624866 -0.008162551
-0.029210076 -0.13433936 -0.055546854 -0.06599851 -0.0363896 -0.062131666 -0.048058998 -0.039689932
-0.0011140456 -0.07155255 0.00071981206 -0.007896349 -0.04385736 -0.015085421 -0.04602938 0.0299867
-0.030082589 0.0058411597 -0.0016857323 0.034492172 0.011278523 -0.114318185 -0.069949 -0.101249844
-0.10862112 -0.09031772 -0.03716002 -0.024127204 -0.097874954 -0.05071196 -0.023131296 0.0733155
-0.0039000704 -0.025493879 -0.05172842 0.0030349514 -0.049567956 -0.077391304 0.03533984 -0.04707721
-0.114209495 -0.069002815 -0.16805857 -0.16311285 -0.05617422 -0.048127208 -0.16599342 0.032385495
-0.057256736 -0.0598246 -0.03962124 0.036114667 -0.11269786 0.06043054 -0.032226585 -0.03066579
0.0017824754 -0.04378672 -0.04848247 -0.03922359 -0.014551571 -0.07320751 -0.0111823715 0.008082365
-0.045309484 -0.11397377 0.00016248303 0.031250905 0.058753874 -0.021292666 -0.05176004 -0.045063224
-0.20004955 -0.0747734 -0.07360055 -0.04096298 -0.027656082 0.007606151 -0.10349451 -0.17769596
-0.026651068 -0.008474069 -0.10546505 -0.09184792 -0.102895044 -0.09784063 -0.07471809 -0.013633326
00000000: 46b7 b13c 0a03 3fbc 8832 82bb 12b0 16be
00000010: 09e0 fdbc ef29 5f3d 5fd0 babd c959 323d
00000020: f14f 483d 8404 e4bd 7163 653d f7fd 2ebc
00000030: b05e 73bd f174 c1bd 6134 8e39 a120 edbd
00000040: c1ec cfbd e291 8b3d f610 563c 3b02 8ebd
00000050: 349f 5abd 1cbf bebd d717 c5bc 1bce 33bc
00000060: e6eb f0bd e672 62bc 4694 54bd 51b6 31bc
00000070: cb1e 993b a11f 4c3b 9faf 803d 688c 37bd
00000080: 00eb b93c 06df 28bc a7a0 d6bc f34f 04bd
00000090: 05d6 1a3d 5d30 653d fbb7 1dbd 4136 2f3d
000000a0: 97c3 83bc d957 d03c a238 98ba e8ae f03c
000000b0: 72d2 12bd a2d5 63bd 2481 88bd 4aa5 a5bd
000000c0: f900 b9bc 15dc ccbc 0810 4c3d 7ef2 a03d
000000d0: c305 0b3c 4df4 12bc 61a5 82bc 2c94 1cbd
000000e0: e448 00bd ab93 5bbd be1e 2cbd 079d 49bd
000000f0: 9d05 813a b7b4 39bc 3df4 debc 0b6c 653d
00000100: 7edc 933b 6ed9 1b3d 3953 d3bc 5557 ddbd
00000110: 9814 973d 6788 a6bd 3bac 78bb dd2e d0bd
00000120: 3c68 6abd c217 253d 2365 1ebd f116 4fbd
00000130: 658b 9cbd e776 2cbd 5b25 64bc 2324 1d3d
00000140: a3a1 753d 84e9 e3bd 8981 b8bc 1f8e 6fbc
00000150: ff85 95bc fb99 2abd 976b 06bd bc09 18be
00000160: 929b 7cbc 90ac 9ebd a069 bdbd c0f1 adbd
00000170: 0d03 1dbd 02b8 46bd 91be 00be a5f3 ddbb
00000180: 20e9 2cbd b145 4dbe 3e62 97bd cf99 653d
00000190: d26d f73c 2056 46bd 5d5e 5abd 5ed7 0cbb
000001a0: 3d51 0a3d ef1a 69bd 9b6f b0bd 58d9 6bbd
000001b0: 838e ed3c b2ce a6bc d46d 0c3d 664c 2ebd
000001c0: 4c59 f0bd 08d7 a73c 29d1 b1bd eca8 e8bd
000001d0: 264a d0bc 87fc 3ebd 01fd 96bb 221d 00bb
000001e0: 9409 abbd 2afa cabd 9d8e a4bd 42e3 85bc
000001f0: 2349 9b3c ab50 24bd 0fb5 6aba bb1c 80bd
00000200: b6e8 14bd ee4c 053d d237 d3bd 8634 293c
00000210: 7cd9 38bc 4b47 643c bdc3 bdbc 08b1 85bd
00000220: 7d8a e6bd 6336 57bd 7de7 aabd 290c 57bd
00000230: 9036 1e3c 5841 0ebd a8a9 37bd 0dea 82bd
00000240: 18f6 8bbd 2203 c5bc 068f fa3b 98de afba
00000250: 8052 0abd aae3 72bd a8f5 24bd 830e 94bd
00000260: d322 37bd 215b 18bd bc09 5b3d 3faf d0bb
00000270: 5c0f 8abb e997 9dbd 3765 9cba cc8d 0f3c
00000280: ab94 cc3d 4b5c 4a3d 4188 99bd a92f fabc
00000290: b98e 4cbd c199 2dbd 041e c5bd 38bc 05bc
000002a0: f849 efbc 4290 09be 1985 63bd 3a2a 87bd
000002b0: 430d 15bd c67d 7ebd 83d9 44bd e991 22bd
000002c0: 2b05 92ba 258a 92bd c5b1 3c3a b05f 01bc
000002d0: c6a3 33bd d728 77bc 4e89 3cbd aba6 f53c
000002e0: c36f f6bc 3367 bf3b caf3 dcba aa47 0d3d
000002f0: 8ec9 383c a71f eabd 6c41 8fbd 145c cfbd
00000300: c074 debd 7ff8 b8bd 1b35 18bd 6aa6 c5bc
00000310: aa72 c8bd 58b7 4fbd d87d bdbc 7026 963d
00000320: 5398 7fbb 8ad8 d0bc 2ee1 53bd 09e6 463b
00000330: c507 4bbd 557f 9ebd 82c0 103d 08d4 40bd
00000340: abe6 e9bd 5951 8dbd 8c17 2cbe 0e07 27be
00000350: f016 66bd 0921 45bd 2efa 29be a7a6 043d
00000360: 0a86 6abd a40a 75bd e249 22bd f9ec 133d
00000370: 23ce e6bd 0486 773d 0600 04bd d336 fbbc
00000380: f3a1 e93a b459 33bd 8e95 46bd eaa8 20bd
00000390: b669 6ebc d2ed 95bd 4436 37bc e56b 043c
000003a0: 7096 39bd 146b e9bd 3560 2a39 f300 003d
000003b0: e7a7 703d f56d aebc 5602 54bd 3794 38bd
000003c0: cad9 4cbe cc22 99bd e3bb 96bd ccc8 27bd
000003d0: 028f e2bc 053d f93b eef4 d3bd eef5 35be
000003e0: 5753 dabc d2d6 0abc 0ffe d7bd c31a bcbd
000003f0: a3ba d2bd ab60 c8bd cc05 99bd 505e 5fbc

b1.bias f4 [32]
-0.25282645 0.30986416 -0.075995184 -0.04269235 -0.11045192 -0.42400795 -0.10963443 -0.11845783
-0.709682 -0.69715387 -0.33240494 -0.20109876 0.5465626 -1.0449193 0.25668415 -0.17801093
-0.92277604 -0.17901608 -0.54763716 -0.41515425 1.4807212 -1.4162108 -0.11908106 1.8692778
-0.16651936 0.501829 0.15645947 -0.73520905 -0.40391687 -0.19799452 -0.97699046 0.062591694
00000000: 7872 81be 84a6 9e3e 5da3 9bbd 2cde 2ebd
00000010: 9e34 e2bd 9217 d9be 0488 e0bd 059a f2bd
00000020: b8ad 35bf ad78 32bf fb30 aabe d5ec 4dbe
00000030: 87eb 0b3f eabf 85bf 1b6c 833e 7f48 36be
00000040: 0d3b 6cbf fe4f 37be f331 0cbf 198f d4be
00000050: 4688 bd3f 6546 b5bf c5e0 f3bd 7f44 ef3f
00000060: 0d84 2abe de77 003f e936 203e a936 3cbf
00000070: 31ce cebe 13bf 4abe 0c1c 7abf 1330 803d

b2.weight f4 [32, 32, 3, 3]
-0.01719837 0.010816226 0.048216045 0.031103285 -0.11051785 -0.054395117 -0.069906175 0.022019148
0.011868955 -1.6466419 0.545074 -0.058861602 -1.6492217 -1.4016066 0.043699 0.16485761
0.004698516 0.054448724 -0.02819571 0.0030317851 0.033610053 0.025070582 -0.0047062445 -0.077733174
0.015546508 -0.005533116 -0.047072846 0.26530242 -1.632825 -0.019447088 0.34440485 0.87398607
0.4382187 0.49000755 -1.6334796 -1.4172156 -0.0069050365 0.005404808 0.05709345 0.024429785
-0.067714766 0.012232616 -0.0028309112 -0.017715953 -0.053613525 -0.43989027 0.79982877 0.32982248
-1.0962237 0.03354005 0.39498892 -0.22753406 -0.9362163 0.019021362 0.03925025 0.08248734
0.032813575 0.034792177 0.011315123 -0.0027531146 -0.018267784 0.0003849944 -0.07017932 0.0029720177
-0.00024419618 -0.008733478 0.015651107 0.0065288213 -0.024385376 -0.0074831904 -0.018595293 -0.04378378
-0.6508489 -0.18027915 -0.56362563 -0.40639845 -0.1818017 -0.47043228 1.2186012 -0.392753
-0.69324154 -0.051952142 -0.1283688 0.60501254 -1.1016945 0.6883502 -1.5142685 0.30646288
-0.53725046 0.17612548 -0.22844061 0.01787444 0.2617172 -0.1445497 -0.15954871 -0.85258347
1.1835119 -0.29681587 0.20555586 1.431255 -1.0371423 -1.2615294 -0.21765338 -0.070684366
-1.0293734 0.6106584 -0.5097116 -0.31809497 0.87983394 -0.327032 -0.723261 0.24340524
-0.31409526 -0.94659257 -0.014810777 -0.7328344 -0.08034217 -1.1565462 0.18721984 0.7531865
0.09463202 -1.4836296 -0.08199385 0.37221512 -0.38878918 0.9654388 -0.9931346 -0.4285214
-1.4950595 0.20470574 1.5120039 0.05452549 0.9745271 0.06730558 0.29312098 0.10662023
0.086192295 0.090130895 -0.038158048 -0.0043329983 -0.0017916358 0.0034824584 0.03961708 -0.025941176
-0.006673128 1.0659955 -0.27308863 0.52620125 0.38257992 0.648257 -0.68063796 -0.48998648
-0.4762744 0.02382438 -0.07411119 -0.053873457 -0.03338007 -0.08430682 -0.027704248 0.011446733
0.0105057545 -0.054757267 -0.7022549 0.48164868 0.7001998 0.6947509 0.28414595 -0.07731725
-0.30586475 0.18598296 -0.25269353 -0.12635462 -0.62574834 -0.47707003 0.62495464 -0.82652533
-0.7610225 0.30443934 0.68391633 0.43467465 -0.23299754 -1.368266 0.46735126 -0.9167562
-0.338997 -0.13950026 -0.40518925 0.4881281 1.267003 -0.39274505 0.10395564 0.13000815
0.62583274 -0.20629352 -0.21443345 0.22824582 -0.71816117 -0.20477176 -0.0032290667 -0.040774252
0.029706998 -0.03032947 -0.041632585 -0.054972436 -0.05851165 -0.012130773 0.028771594 -0.057047695
0.7787631 0.07019711 -0.2513779 -0.46100777 -0.2160072 -0.49440315 -0.25081596 -0.1392554
-0.03713971 -0.02431829 -0.03508769 -0.016349334 0.032881036 -0.006979681 0.036644537 0.025730282
0.04725189 -0.09954303 -0.1789677 0.27249494 0.066210546 0.19711222 -0.2130483 -0.53357726
-0.9514658 -0.23099393 -0.084900744 -0.37316597 -0.37060532 -0.43931335 0.11120993 0.1826232
-0.19712551 -0.07577832 0.026098842 -1.6361618 0.27092522 -0.8974824 0.87255096 0.01804043
0.8827885 0.71679384 -0.68477833 1.1318958 1.0212401 0.64640015 -0.40085492 -0.35841784
00000000: 99e3 8cbc 8a36 313c 307e 453d 51cc fe3c
00000010: 2f57 e2bd 6acd 5ebd f82a 8fbd 8061 b43c
00000020: 0176 423c 29c5 d2bf f889 0b3f dd18 71bd
00000030: b219 d3bf d867 b3bf b9fd 323d 6fd0 283e
00000040: 02f6 993b a005 5f3d b1fa e6bc eab0 463b
00000050: b2aa 093d d260 cd3c d736 9abb 9232 9fbd
00000060: c8b6 7e3c 244f b5bb 75cf 40bd b8d5 873e
00000070: 6900 d1bf 804f 9fbc d555 b03e 8dbd 5f3f
00000080: 345e e03e 45e2 fa3e dc15 d1bf 5267 b5bf
00000090: a543 e2bb d11a b13b d2da 693d f920 c83c
000000a0: 0aae 8abd 4f6b 483c cf86 39bb 0c21 91bc
000000b0: db99 5bbd 4c39 e1be 94c1 4c3f 7ede a83e
000000c0: 0f51 8cbf 4b61 093d fd3b ca3e b0fe 68be
000000d0: dfab 6fbf b0d2 9b3c dfc4 203d 1fef a83d
000000e0: 8767 063d 3e82 0e3d 1163 393c 996d 34bb
000000f0: 52a6 95bc 13d9 c939 2dba 8fbd 2fc6 423b
00000100: 7507 80b9 dd16 0fbc c036 803c b9ef d53b
00000110: d7c3 c7bc 8d35 f5bb 2855 98bc 9f56 33bd
00000120: 099e 26bf 199b 38be c549 10bf 7513 d0be
00000130: 3a2a 3abe 80dc f0be 20fb 9b3f ec16 c9be
00000140: 4778 31bf c5cb 54bd 1c73 03be 1ae2 1a3f
00000150: 5304 8dbf b837 303f 8dd3 c1bf b4e8 9c3e
00000160: 3f89 09bf 3d5a 343e 56ec 69be 6b6d 923c
00000170: ccff 853e d604 14be bd60 23be e942 5abf
00000180: 517d 973f 40f8 97be 3c7d 523e 5d33 b73f
00000190: 14c1 84bf cc79 a1bf 87e0 5ebe f7c2 90bd
000001a0: 82c2 83bf 1c54 1c3f 767c 02bf 58dd a2be
000001b0: cc3c 613f bd70 a7be a227 39bf 393f 793e
000001c0: 18d1 a0be e453 72bf e7a8 72bc 099b 3bbf
000001d0: 708a a4bd b509 94bf 8fb6 3f3e d5d0 403f
000001e0: 6fce c13d 93e7 bdbf 64ec a7bd fb92 be3e
000001f0: 600f c7be ff26 773f 123e 7ebf 2867 dbbe
00000200: 1c5e bfbf 629e 513e 5889 c13f 1f56 5f3d
00000210: 9c7a 793f 82d7 893d f413 963e b55b da3d
00000220: 9685 b03d 8c96 b83d 9d4b 1cbd d3fb 8dbb
00000230: 52d5 eaba f539 643b 8545 223d 9782 d4bc
00000240: 41aa dabb 8a72 883f 46d2 8bbe 20b5 063f
00000250: 84e1 c33e 2cf4 253f 4a3e 2ebf 82df fabe
00000260: 3dda f3be 592b c33c 9cc7 97bd 6aaa 5cbd
00000270: 8ab9 08bd 0ea9 acbd 05f4 e2bc 148b 3b3c
00000280: 5420 2c3c 2849 60bd fac6 33bf a89a f63e
00000290: 4b40 333f 32db 313f 947b 913e 8258 9ebd
000002a0: 4e9a 9cbe 5172 3e3e 0c61 81be 1b63 01be
000002b0: 0b31 20bf 8642 f4be 07fd 1f3f 2a97 53bf
000002c0: 5fd2 42bf 79df 9b3e 2415 2f3f ad8d de3e
000002d0: e896 6ebe 5723 afbf aa48 ef3e 89b0 6abf
000002e0: 0491 adbe 28d9 0ebe f774 cfbe edeb f93e
000002f0: 282d a23f e115 c9be b2e6 d43d db20 053e
00000300: 9336 203f 9c3e 53be 7194 5bbe 46b9 693e
00000310: 69d9 37bf b0af 51be c09e 53bb e702 27bd
00000320: 175c f33c 8275 f8bc ee86 2abd c72a 61bd
00000330: e9a9 6fbd 26c0 46bc 68b2 eb3c d8aa 69bd
00000340: 055d 473f 81c3 8f3d 9bb4 80be 3609 ecbe
00000350: fe30 5dbe 6922 fdbe f36a 80be f898 0ebe
00000360: cf1f 18bd 2737 c7bc 1cb8 0fbd 0aef 85bc
00000370: 44ae 063d cfb5 e4bb 9518 163d 50c8 d23c
00000380: 338b 413d 37dd cbbd 4f43 37be 7584 8b3e
00000390: 6599 873d c9d7 493e 5529 5abe 8598 08bf
000003a0: 4393 73bf ac89 6cbe 71e0 adbd 9c0f bfbe
000003b0: fbbf bdbe aeed e0be 08c2 e33d 9301 3b3e
000003c0: 45db 49be aa31 9bbd 3dcd d53c c06d d1bf
000003d0: b6b6 8a3e 68c1 65bf 805f 5f3f 86c9 933c
000003e0: 6dfe 613f cd7f 373f a24d 2fbf f6e1 903f
000003f0: ffb7 823f 7b7a 253f db3c cdbe 8b82 b7be

b2.bias f4 [32]
-1.5079405 1.5094409 -0.9205748 -0.27136785 0.78383034 0.2609149 1.1119004 0.45836964
-0.2082665 -0.3682496 -0.46066856 0.47955757 -0.73273456 1.137022 0.5969623 -1.1053545
0.10999501 -1.0881919 -0.47214586 -1.1266133 -0.12159218 0.9449775 -0.84816945 -0.75911444
0.7176331 0.15203774 -0.6259307 1.4812927 -1.264503 0.8190783 -1.4234579 -0.2332113
00000000: 3204 c1bf 5c35 c13f caaa 6bbf baf0 8abe
00000010: 1ba9 483f a396 853e c152 8e3f 6daf ea3e
00000020: d043 55be 368b bcbe c0dc ebbe 9288 f53e
00000030: 7e94 3bbf f089 913f 85d2 183f 427c 8dbf
00000040: 1045 e13d df49 8bbf 1abd f1be dd34 90bf
00000050: 5205 f9bd 0cea 713f a221 59bf 5355 42bf
00000060: ceb6 373f c8af 1b3e ff3c 20bf 009b bd3f
00000070: 3cdb a1bf 1eaf 513f de33 b6bf f1ce 6ebe

b3.weight f4 [64, 32, 3, 3]
0.8540563 0.19394547 0.0995338 -0.0020932578 -0.21730952 0.01583858 -0.81437933 0.24464802
-1.3652216 -0.56438094 -0.8799924 -0.15763809 -0.14334948 -0.3388602 -0.68894476 -0.5538249
0.17965007 0.36704147 -0.40038648 1.1832595 0.26450965 -0.20045295 0.11112183 -0.21721779
0.06702059 -0.021652026 0.618436 0.5632484 -0.53537285 1.0528268 0.11283083 0.8266061
-0.20752954 -0.0032612905 0.22497614 -1.5157487 0.008822279 -0.1293495 -0.8210237 0.27526784
0.6627729 0.69287837 0.15237193 1.1795571 0.4914058 -0.32332474 0.45294803 0.18832524
0.33900768 -0.08039366 -0.5016153 0.18766874 -0.31730002 0.7844564 -0.43441862 0.6728965
-1.4082588 -0.4622003 -1.0020747 -0.8412176 -0.26213259 -0.80928975 -0.69412524 -1.0880405
0.49783793 0.36851072 -0.19000085 0.12161779 -0.27600887 0.10504596 0.04619836 0.641844
-0.51625645 -0.32413596 0.03116704 0.0598524 0.9698364 0.09714547 0.17013896 0.38369423
-0.13342923 -0.10530594 0.5427856 0.13254412 -1.0815902 0.51301825 0.16471978 0.22563507
0.3579375 -0.15632044 0.69595045 -0.5644899 -0.30870822 -0.0062282695 -0.0060972557 0.8828763
-0.2453431 0.7373546 0.49842763 -1.2864155 -0.5854976 -0.5643548 -0.43964818 -0.00024638936
0.42030272 -0.233093 -0.5539868 -0.27172643 0.10711464 -1.1663556 0.45248622 -0.85133904
-0.5302939 -0.31104982 0.080157064 -0.33908284 -0.5026833 -0.2821549 0.2990362 -0.7014931
0.69870347 -0.53285766 -0.87928945 -0.85050863 -0.40995264 -1.1233525 -0.9414883 -0.81994814
0.63229203 0.46585703 -0.55011266 0.27769083 -0.22949 -0.19662674 1.132971 0.6297679
-0.6088774 -0.34193707 -0.10927624 -0.17471027 1.1647744 0.6872754 -0.35438225 0.32719946
-1.0821505 0.78363436 -0.67382073 -0.59188825 0.70378387 0.39446288 0.53350186 -1.3268535
-0.27376193 -0.66135925 0.25826108 0.28459263 -0.5238788 0.99365216 -0.3305353 0.45670873
0.19379202 -0.19070747 -0.5302041 -0.0839725 0.6472401 0.16139534 -0.7955888 0.095935345
-0.17569283 -0.049085237 0.28429973 0.5302837 -1.6266601 0.64878905 -0.4735944 -0.20182602
0.45727557 -1.270354 1.0790628 -0.21517389 -0.612718 -0.19367048 -0.16244595 -0.425699
1.3199745 0.07922017 -1.3058292 0.66545063 1.3461012 0.9184957 -0.57645005 -0.47535613
0.2289859 0.7416455 -0.39115143 -0.9720662 -0.016350444 -0.10522476 0.028446741 -0.5985504
1.5489153 0.058162294 0.17108089 -0.2164944 -1.3196349 0.31349206 0.35323188 0.17105608
-0.2650577 -0.39289364 0.4692304 0.33877626 -0.937794 0.41872802 -0.27501193 -0.8459003
0.76655596 0.042108707 0.047327496 -1.1558784 -0.26584584 -0.38359854 -0.30240402 0.14574975
0.22924668 -0.76968026 0.58235943 1.4698641 0.025201378 -0.072478734 0.011026071 0.20446643
0.15646999 1.1327744 -0.33285606 -0.26694715 0.32943523 0.01094843 -0.7654359 -0.5404687
-0.44890475 1.4439088 1.2886455 0.31721476 -0.2365599 -0.5063927 0.014350809 -0.5379975
-0.8424367 -0.3053083 -0.52887255 -1.7182972 -0.39402235 0.94892097 0.3917081 -0.2952
00000000: 6fa3 5a3f a499 463e 60d8 cb3d 0a2f 09bb
00000010: 6386 5ebe e9bf 813c 2a7b 50bf 0385 7a3e
00000020: 95bf aebf 457b 10bf 2f47 61bf e16b 21be
00000030: 35ca 12be 167f adbe af5e 30bf 78c7 0dbf
00000040: 30f6 373e dcec bb3e 75ff ccbe 0c75 973f
00000050: cf6d 873e 8a43 4dbe d893 e33d 576e 5ebe
00000060: 1742 893d 975f b1bc d251 1e3f 0c31 103f
00000070: 320e 09bf 07c3 863f da13 e73d 759c 533f
00000080: a082 54be 60bb 55bb 2560 663e 0e04 c2bf
00000090: 528b 103c 3274 04be 9c2e 52bf e8ef 8c3e
000000a0: 7cab 293f 7a60 313f 6307 1c3e bafb 963f
000000b0: 8b99 fb3e d28a a5be cee8 e73e 55d8 403e
000000c0: 6a92 ad3e 6ea5 a4bd dc69 00bf 3c2c 403e
000000d0: 2675 a2be 22d2 483f 1e6c debe f242 2c3f
000000e0: d341 b4bf 85a5 ecbe fc43 80bf 095a 57bf
000000f0: 3e36 86be 9d2d 4fbf 31b2 31bf e944 8bbf
00000100: 9de4 fe3e 70ad bc3e 958f 42be bf12 f93d
00000110: 0951 8dbe 5622 d73d 7e3a 3d3d e34f 243f
00000120: 6229 04bf 26f5 a5be 0552 ff3c ca27 753d
00000130: 3347 783f 34f4 c63d e838 2e3e 9273 c43e
00000140: aca1 08be a4aa d7bd fff3 0a3f a5b9 073e
00000150: 8c71 8abf 2a55 033f 4dac 283e e10c 673e
00000160: 9643 b73e 7712 20be cf29 323f 6982 10bf
00000170: 010f 9ebe 8316 ccbb 7dcb c7bb 2e04 623f
00000180: 393b 7bbe 45c3 3c3f e831 ff3e 43a9 a4bf
00000190: 2ce3 15bf 8e79 10bf 9119 e1be d22d 81b9
000001a0: eb31 d73e eeaf 6ebe 14d2 0dbf ba1f 8bbe
000001b0: ec5e db3d 244b 95bf 46ac e73e 5bf1 59bf
000001c0: 57c1 07bf ec41 9fbe 6329 a43d 449c adbe
000001d0: daaf 00bf 9b76 90be 461b 993e 0d95 33bf
000001e0: 3bde 323f 5c69 08bf 1d19 61bf efba 59bf
000001f0: 50e5 d1be 04ca 8fbf 6105 71bf 1fe8 51bf
00000200: e4dd 213f d084 ee3e 2fd4 0cbf 7e2d 8e3e
00000210: 6dff 6abe 8558 49be 3205 913f 7838 213f
00000220: 64df 1bbf 6012 afbe 39cc dfbd 40e7 32be
00000230: 5417 953f 48f1 2f3f 9771 b5be b086 a73e
00000240: e883 8abf 439c 483f 847f 2cbf fd85 17bf
00000250: 2e2b 343f 0af7 c93e 9493 083f 56d6 a9bf
00000260: 862a 8cbe d74e 29bf cc3a 843e 20b6 913e
00000270: ec1c 06bf fd5f 7e3f ec3b a9be bad5 e93e
00000280: 6a71 463e d248 43be 75bb 07bf c6f9 abbd
00000290: 87b1 253f d244 253e b5ab 4bbf c079 c43d
000002a0: d2e8 33be 9a0d 49bd bc8f 913e acc0 073f
000002b0: 6636 d0bf 0a17 263f f77a f2be 7bab 4ebe
000002c0: 0620 ea3e f69a a2bf bb1e 8a3f 8b56 5cbe
000002d0: 16db 1cbf 8e51 46be 3b58 26be 38f5 d9be
000002e0: edf4 a83f 2f3e a23d 6925 a7bf f95a 2a3f
000002f0: 0b4d ac3f 8922 6b3f 3b92 13bf e161 f3be
00000300: 487b 6a3e 7bdc 3d3f 0045 c8be 55d9 78bf
00000310: 5ef1 85bc 1480 d7bd 2409 e93c 993a 19bf
00000320: db42 c63f 963b 6e3d d42f 2f3e b5b0 5dbe
00000330: cce9 a8bf 0882 a03e cfda b43e 5329 2f3e
00000340: a5b5 87be 5b29 c9be f83e f03e 1574 ad3e
00000350: 4513 70bf 8563 d63e 5dce 8cbe ec8c 58bf
00000360: 033d 443f 2e7a 2c3d 7ada 413d d3f3 93bf
00000370: f21c 88be 0767 c4be b3d4 9abe 6c3f 153e
00000380: a4bf 6a3e c409 45bf 8215 153f 8224 bc3f
00000390: 1f73 ce3c bb6f 94bd b2a6 343c a65f 513e
000003a0: ab39 203e c0fe 903f 1c6c aabe 4cad 88be
000003b0: bcab a83e 0b61 333c 9bf3 43bf 285c 0abf
000003c0: d8d6 e5be 01d2 b83f 56f2 a43f f969 a23e
000003d0: c23c 72be f4a2 01bf a81f 6b3c 34ba 09bf
000003e0: eea9 57bf 5f51 9cbe 3164 07bf 2af1 dbbf
000003f0: 4cbd c9be 7cec 723f f78d c83e 7424 97be

b3.bias f4 [64]
-1.020484 -0.034704346 -0.24622808 -0.7788637 -0.32705495 -0.09741509 -0.23483028 -0.4079692
0.48998788 -1.0756617 0.4116517 -0.056785844 -0.6923674 0.39447343 -1.1346098 0.53522766
-0.08298931 0.6674004 -0.65439963 -1.0501341 -0.18569215 -0.15210705 1.3221385 -0.53296965
-0.12547807 0.21789913 0.40309772 -0.68575954 -0.22556204 1.5703672 -0.14746399 0.24440819
-0.64770705 -0.06448317 -0.9031305 0.512631 -1.0900571 0.27685443 -0.65651244 0.82576656
1.1332897 1.9555938 0.40222967 0.14756683 -0.21648026 -0.12595935 0.013644938 -0.15121347
-0.275134 1.0756142 -0.68940145 -0.15050879 -1.0070889 -0.20776147 -0.42729232 1.9002354
0.9597475 -0.15757339 -0.045269594 -0.6216652 -0.062952615 -0.08400073 -0.17631833 -0.10432521
00000000: 389f 82bf 2526 0ebd 3723 7cbe 9d63 47bf
00000010: bf73 a7be 9081 c7bd 5977 70be 57e1 d0be
00000020: b1df fa3e 48af 89bf 03c4 d23e 4698 68bd
00000030: fd3e 31bf 6cf8 c93e e53a 91bf ae04 093f
00000040: 4df6 a9bd c1da 2a3f bc86 27bf cb6a 86bf
00000050: 1526 3ebe f3c1 1bbe d63b a93f b370 08bf
00000060: 537d 00be f320 5f3e d362 ce3e f08d 2fbf
00000070: bcf9 66be cb01 c93f cd00 17be 2446 7a3e
00000080: 21d0 25bf c10f 84bd 8f33 67bf c93b 033f
00000090: fe86 8bbf ddbf 8d3e 3311 28bf 7065 533f
000000a0: a30f 913f e650 fa3f 0cf1 cd3e c21b 173e
000000b0: 00ad 5dbe 7dfb 00be 058f 5f3c b4d7 1abe
000000c0: 5dde 8cbe baad 893f 9d7c 30bf fa1e 1abe
000000d0: 4ae8 80bf 6cbf 54be 0fc6 dabe ea3a f33f
000000e0: 03b2 753f eb5a 21be 9c6c 39bd 7325 1fbf
000000f0: 4ded 80bd 9308 acbd cb8c 34be 75a8 d5bd

c1.weight f4 [64, 64, 2, 2]
1.1489177 -0.006601431 0.32424048 0.07696713 -0.13450214 -0.014782228 -0.003407601 -0.10367331
0.090625264 0.021414205 0.0042902734 -0.032778785 0.34310958 -0.029899353 0.54063165 0.16150773
0.036612727 -0.060166616 0.86296004 -0.044587925 -0.13668208 -0.015975727 0.02230339 -0.013852639
-0.08418676 -0.102027625 0.036094498 -0.02276193 0.040499557 -0.021694234 -1.1442351 -0.10624223
-0.045946755 -0.07979726 -0.04692978 -0.17338988 0.1372819 0.020536369 -0.55254024 -0.20241794
0.2648532 -0.10368214 -0.045104384 -0.18749876 -0.061859272 -0.09631244 -0.044745296 -0.032560755
-0.33798146 0.009791709 0.4337247 -0.22251344 -0.40741932 -0.15874703 0.013157071 -0.5077713
-0.23073903 0.0006962432 -0.7891041 -0.0998933 0.14162597 -0.014623864 -0.26815996 0.22500399
-0.06852471 0.050577577 0.0022729775 0.17261823 -0.41725364 -0.06488792 0.050051965 -0.070309184
0.41309017 0.012719853 1.4764498 -0.41791138 0.15900765 -0.023886867 -0.51075447 -0.18924941
0.32368088 -0.075006634 0.5294382 0.27004868 -0.06634936 -0.048680525 0.042408183 -0.06608526
-0.5341786 -0.09880045 0.4247009 0.013896112 -0.36989102 -0.06320841 0.1681292 -0.06724975
0.031032018 -0.054735526 -0.04074181 0.0041190833 0.46173337 -0.02235393 -0.17802961 -0.44760928
-0.48036495 -0.043039892 -0.48073864 -0.21834311 0.21482848 -0.025258565 -0.32262868 0.14305866
0.009256773 -0.028652506 0.05435441 -0.07685607 0.062114112 -0.0082105715 -0.015054656 0.041539453
-0.03081078 -0.0125475 -0.021962993 -0.010462336 -0.062538296 -0.057459354 -0.5562405 0.2688161
0.09525383 -0.028219678 0.2935539 -0.4729349 0.0028661033 0.04787156 -0.013640375 -0.0004908266
-0.07916782 -0.10418615 -0.34824428 0.14891465 0.5087208 0.010149556 0.19303852 0.39420417
0.6690251 0.0075351023 -0.6649576 -0.34926224 0.11434289 -0.0648476 0.14087465 -0.1188039
-0.39194366 -0.052532826 -0.54138994 -0.0072425185 0.05196963 -0.07389528 -0.26043105 0.12564112
-0.7954614 -0.07065895 -0.52067137 -0.18348518 -0.39520404 -0.084899224 -0.2876238 -0.058045972
0.36881348 0.004684189 0.25280002 -0.032290198 0.44304863 -0.03735061 -0.4547509 -0.25861022
-0.06713514 -0.008729641 0.5763548 -0.38948932 0.0042362884 0.012587549 -0.038302876 -0.047607783
0.5362551 0.023774965 1.0710936 -0.2675791 -0.1698693 -0.0017989054 -0.0014611582 0.120848715
0.011759303 -0.04116466 0.031050427 -0.010822472 -0.27621529 -0.042392094 -0.6758754 -0.35609445
-0.42730138 -0.032914516 -0.42471242 -0.10153963 -0.052037947 -0.0013952777 0.03335286 0.023036724
0.09121771 -0.06504384 0.029230762 -0.06643632 -0.08810479 0.0044127526 -0.05827912 0.061383113
0.10414932 -0.005333141 -0.01386766 -0.100878716 -0.12201616 -0.042477045 -0.15184373 -0.28532898
-0.41493708 -0.11142916 -0.085265994 -0.10838455 -0.016899794 -0.035444606 -0.031304203 0.018862382
0.039325178 0.0889928 -0.07151413 -0.008678959 -0.09850558 -0.029070035 -0.06012254 -0.2400554
-0.17967789 -0.03867157 0.4172686 0.2073839 0.61427605 -0.022632983 0.52365655 -0.15994175
-0.32614878 -0.028346306 -0.3484291 -0.29911843 0.033684336 0.030790348 0.06534027 0.021500917
00000000: bc0f 933f d150 d8bb d902 a63e f1a0 9d3d
00000010: eeba 09be 2831 72bc 0f52 5fbb ac52 d4bd
00000020: bd99 b93d d86c af3c 6c95 8c3b 0c43 06bd
00000030: 0fac af3e 7def f4bc d666 0a3f 4862 253e
00000040: 3af7 153d 4571 76bd f3ea 5c3f d4a1 36bd
00000050: 63f6 0bbe 87df 82bc 99b5 b63c 2ef6 62bc
00000060: 1c6a acbd dcf3 d0bd d3d7 133d 3a77 babc
00000070: dde2 253d 1bb8 b1bc 4c76 92bf 8795 d9bd
00000080: aa32 3cbd bf6c a3bd 7139 40bd 1e8d 31be
00000090: a093 0c3e e33b a83c 4773 0dbf a646 4fbe
000000a0: d79a 873e 4d57 d4bd 60bf 38bd adff 3fbe
000000b0: 2660 7dbd 753f c5bd d846 37bd 6d5e 05bd
000000c0: e80b adbe 676d 203c 2a11 de3e 90da 63be
000000d0: 4499 d0be 958e 22be c190 573c 4dfd 01bf
000000e0: da46 6cbe 1784 363a ba02 4abf dc94 ccbd
000000f0: 6606 113e ee98 6fbc 434c 89be 7267 663e
00000100: af56 8cbd 6f2a 4f3d 3cf6 143b d5c2 303e
00000110: 45a2 d5be f5e3 84bd 4a03 4d3d 43fe 8fbd
00000120: 8e80 d33e ee66 503c 4ffc bc3f 7bf8 d5be
00000130: e7d2 223e 64ae c3bc cec0 02bf 99ca 41be
00000140: 80b9 a53e 149d 99bd 4389 073f d243 8a3e
00000150: 2ce2 87bd 3b65 47bd 34b4 2d3d b557 87bd
00000160: eebf 08bf e457 cabd 6572 d93e 85ac 633c
00000170: 5b62 bdbe 6973 81bd 102a 2c3e 3dba 89bd
00000180: dc36 fe3c 5c32 60bd e2e0 26bd 60f9 863b
00000190: 5168 ec3e 971f b7bc 654d 36be 0b2d e5be
000001a0: 65f2 f5be 994a 30bd 6023 f6be 5695 5fbe
000001b0: fffb 5b3e 0deb cebc 962f a5be f87d 123e
000001c0: b8a9 173c a9b8 eabc bba2 5e3d b766 9dbd
000001d0: 5e6b 7e3d a285 06bc cea7 76bc 4625 2a3d
000001e0: e466 fcbc 0894 4dbc bceb b3bc 386a 2bbc
000001f0: 1414 80bd 805a 6bbd c765 0ebf 44a2 893e
00000200: 7114 c33d f42c e7bc b24c 963e 8624 f2be
00000210: 3cd5 3b3b f814 443d e17b 5fbc d1aa 00ba
00000220: bd22 a2bd 8c5f d5bd 134d b2be 157d 183e
00000230: 873b 023f 534a 263c e4ab 453e 21d5 c93e
00000240: 3b45 2b3f 05e9 f63b a93a 2abf 80d2 b2be
00000250: 9b2c ea3d d2ce 84bd 7241 103e 764f f3bd
00000260: d7ac c8be a92c 57bd 8898 0abf a652 edbb
00000270: 1bde 543d 6956 97bd 3857 85be 11a8 003e
00000280: 5ca3 4bbf a4b5 90bd b84a 05bf 8ae3 3bbe
00000290: 2f58 cabe a5df adbd 6d43 93be 9dc1 6dbd
000002a0: 1fd5 bc3e d37d 993b 016f 813e ba42 04bd
000002b0: 45d7 e23e f4fc 18bd 1cd5 e8be 8f68 84be
000002c0: 267e 89bd c506 0fbc fd8b 133f 256b c7be
000002d0: 90d0 8a3b 023c 4e3c 7ae3 1cbd 6100 43bd
000002e0: 0448 093f b7c3 c23c 9819 893f 2100 89be
000002f0: 38f2 2dbe 40c9 ebba 5584 bfba 887f f73d
00000300: 17aa 403c 469c 28bd 775d fe3c bd50 31bc
00000310: 176c 8dbe 55a3 2dbd 2c06 2dbf 0352 b6be
00000320: 3fc7 dabe 5fd1 06bd e873 d9be 02f4 cfbd
00000330: be25 55bd c0e1 b6ba 029d 083d 83b7 bc3c
00000340: 5ad0 ba3d b435 85bd 5a75 ef3c c40f 88bd
00000350: 4970 b4bd da98 903b 16b6 6ebd dc6c 7b3d
00000360: 3d4c d53d a1c1 aebb 2f35 63bc 8099 cebd
00000370: 9ce3 f9bd 69fc 2dbd ec7c 1bbe a416 92be
00000380: a272 d4be f934 e4bd f09f aebd b8f8 ddbd
00000390: 7071 8abc 5d2e 11bd d638 00bd 4885 9a3c
000003a0: 7013 213d db41 b63d 0076 92bd 3132 0ebc
000003b0: 4bbd c9bd 4824 eebc 0d43 76bd 15d1 75be
000003c0: 7bfd 37be 1566 1ebd 3ba4 d53e 725c 543e
000003d0: 3241 1d3f ce68 b9bc 5b0e 063f c5c7 23be
000003e0: f9fc a6be 8336 e8bc 4d65 b2be 0d26 99be
000003f0: 96f8 093d 0a3c fc3c 1fd1 853d b122 b03c

c1.bias f4 [64]
-1.2244035 -1.5095165 -1.0911639 -1.3382243 -0.44642702 -1.7308048 -1.4386507 -0.09500178
-0.9178734 -1.1816396 -0.9316874 -1.6926166 -1.7580408 0.7136136 -0.5936191 -1.5205255
-0.14218046 0.8424283 -1.8734118 -1.1536896 -3.0771458 -0.7838173 -1.7781316 -1.2654356
-1.3291754 -2.2699215 -0.37735778 -0.44308528 -1.6101005 -0.15503207 -1.549714 -2.4997857
-0.7786543 -1.5241032 -1.516196 -0.46384302 0.09640669 -0.89568686 -2.090202 -0.9279712
-1.641314 -0.7268688 -1.7882497 -0.93587416 -1.7972665 -1.2053832 -1.7113613 -0.74381757
-1.6259198 -1.7447678 -1.8783782 -0.6414993 -0.32830477 -1.4453771 -0.8613212 -0.30640188
-1.6969075 -1.9610751 -0.5277958 -0.9344685 -0.29556563 0.45315742 -1.3760654 -1.0443369
00000000: 41b9 9cbf d637 c1bf 42ab 8bbf ef4a abbf
00000010: 1592 e4be 038b ddbf b525 b8bf 4b90 c2bd
00000020: c0f9 6abf f73f 97bf 1183 6ebf a9a7 d8bf
00000030: 7b07 e1bf 62af 363f 6cf7 17bf 94a0 c2bf
00000040: c197 11be 62a9 573f f5cb efbf 1aac 93bf
00000050: f5ef 44c0 40a8 48bf d199 e3bf cbf9 a1bf
00000060: 6b22 aabf 6546 11c0 0a35 c1be 13dc e2be
00000070: c617 cebf bac0 1ebe 075d c6bf 7dfc 1fc0
00000080: e355 47bf d015 c3bf b612 c2bf d57c edbe
00000090: df70 c53d bc4b 65bf dfc5 05c0 858f 6dbf
000000a0: 9416 d2bf 1314 3abf 5ee5 e4bf 7395 6fbf
000000b0: d40c e6bf ff49 9abf e30d dbbf d46a 3ebf
000000c0: 241e d0bf 8d54 dfbf b26e f0bf 4c39 24bf
000000d0: 9017 a8be 1e02 b9bf 8c7f 5cbf b5e0 9cbe
000000e0: 4434 d9bf 8204 fbbf a01d 07bf 5439 6fbf
000000f0: 6154 97be 4004 e83e e922 b0bf d5ac 85bf
